Logs/ckpt/best_ssim_enc.pth (torch, 35166 bytes, 16 tensors)

enc.0.conv.conv.weight f4 [16, 1, 3, 3]
-0.04086694 -0.00087639684 -0.008969831 -0.011465456 -0.030139215 0.005935488 -0.0042168065 -0.02049061
0.00029649443 -0.01798878 -0.010573244 -0.011032572 0.014817452 -0.004290841 -0.0012943399 -0.0045561013
-0.038184892 -0.011480777 -0.008697514 0.0072949906 -0.0055543343 -0.011326777 -0.017642364 -0.0041528963
-0.0013132563 0.0009539174 -0.010673162 -0.012401646 -0.009622858 -0.020460824 0.016991606 0.0081664175
-0.00015990938 0.0042746617 -0.0037003185 0.0029082713 0.0024178345 0.0032344505 0.004230379 -0.017465802
0.008219321 0.009064943 -0.00632865 -0.021244388 -0.014219996 -0.012775164 -0.030479236 -0.014533436
0.012799541 -0.005200514 0.0065522147 -0.010836801 0.022411572 0.0012090531 -0.014580575 -0.011263592
-0.029596834 -0.0042579123 -0.01018194 -0.008159511 -0.029792001 -0.005767303 -0.01057499 0.006178513
0.0014942086 0.014838884 0.008134315 0.013001444 0.023536341 0.009964993 0.017843384 -0.00615635
0.010503733 0.01650136 -0.019921966 -0.005499607 -0.03898785 -0.01166723 0.01112761 -0.007315337
-0.024834726 0.011267793 -0.0012240649 0.011520312 0.02244617 0.00020805342 0.015090244 0.020296093
0.008832705 0.020119857 0.014678457 -0.00096604513 0.026017744 0.008897406 -0.030830618 -0.01785155
0.0115712 -0.007067752 -0.019378068 -0.004731108 -0.040520772 0.021087795 -0.007801912 0.018412493
-0.009985395 0.017617704 -0.015843475 0.029958779 -0.0056010196 0.018066363 -0.0076148077 -0.009543537
0.0010765444 -0.03517071 0.01621336 -0.020000547 -0.0028314802 -0.015382297 0.0021682843 -0.012432014
-0.02418088 -0.030698795 0.021638094 0.0041813976 -0.04227479 0.019299705 0.023059195 0.027417991
0.00472066 0.020025402 0.025376078 0.035997268 0.0015033688 0.014265729 0.04280978 -0.027297774
0.02570778 -0.0073620174 0.00833398 -0.007976536 0.015203612 0.0071785436 -0.014775112 0.0046429117
00000000: 1864 27bd ffbd 65ba 33f6 12bc 9cd9 3bbc
00000010: 84e6 f6bc 7b7e c23b 232d 8abb ecdb a7bc
00000020: cf72 9b39 355d 93bc 663b 2dbc f6c1 34bc
00000030: e6c4 723c 2f9a 8cbb d7a6 a9ba 594b 95bb
00000040: c367 1cbd de19 3cbc 0580 0ebc d10a ef3b
00000050: 2201 b6bb f293 39bc b886 90bc 0515 88bb
00000060: 9221 acba 5010 7a3a 7cde 2ebc 4630 4bbc
00000070: 31a9 1dbc 759d a7bc fb31 8b3c 70cc 053c
00000080: 59ad 27b9 7612 8c3b 0b81 72bb b298 3e3b
00000090: 8874 1e3b 13f9 533b fe9e 8a3b 7114 8fbc
000000a0: 55aa 063c 2085 143c 9060 cfbb b608 aebc
000000b0: fcfa 68bc ec4e 51bc 97af f9bc a61d 6ebc
000000c0: 2ab5 513c 1369 aabb f6b3 d63b d68c 31bc
000000d0: 7998 b73c 1779 9e3a 5de3 6ebc ee8a 38bc
000000e0: 0f75 f2bc f585 8bbb 27d2 26bc 78af 05bc
000000f0: 5b0e f4bc a5fb bcbb b942 2dbc 2075 ca3b
00000100: 52d9 c33a ca1e 733c ca45 053c 0204 553c
00000110: 49cf c03c 3644 233c 4a2c 923c 35bb c9bb
00000120: d917 2c3c dc2d 873c 6433 a3bc 0c36 b4bb
00000130: b9b1 1fbd e927 3fbc 9450 363c 7fb5 efbb
00000140: 3272 cbbc 8d9c 383c cd70 a0ba b1bf 3c3c
00000150: 08e1 b73c ea28 5a39 123d 773c fe43 a63c
00000160: 0db7 103c 66d2 a43c e97d 703c 313e 7dba
00000170: 2a23 d53c 6dc6 113c 7e90 fcbc 6a3d 92bc
00000180: 2195 3d3c 9a98 e7bb c1be 9ebc 6907 9bbb
00000190: 1cf9 25bd 50c0 ac3c 2ea7 ffbb ccd5 963c
000001a0: c899 23bc 0153 903c 2dca 81bc 1d6c f53c
000001b0: c288 b7bb e9ff 933c a385 f9bb 7f5c 1cbc
000001c0: d61a 8d3a 2a0f 10bd e1d1 843c 30d8 a3bc
000001d0: 5b90 39bb 0806 7cbc c619 0e3b a5af 4bbc
000001e0: fb16 c6bc 0a7c fbbc 5f42 b13c 1b04 893b
000001f0: 5528 2dbd 6a1a 9e3c a3e6 bc3c b29b e03c
00000200: c4af 9a3b 500c a43c 7ee1 cf3c df71 133d
00000210: b00c c53a ceba 693c 4f59 2f3d 959f dfbc
00000220: 1f99 d23c 143d f1bb 3f8b 083c 04b0 02bc
00000230: 9218 793c fd39 eb3b 5013 72bc 9123 983b

enc.0.conv.conv.bias f4 [16]
-0.0038324874 -0.0051499493 -0.0117769735 -0.008369014 -0.011666665 -0.007246274 -0.007009644 0.05505051
-0.010120909 -0.00827774 -0.008791462 -0.0101341745 -0.0141652655 -0.029281072 0.03891176 0.041859336
00000000: 782a 7bbb e8c0 a8bb 35f4 40bc 301e 09bc
00000010: 8a25 3fbc 2772 edbb 28b1 e5bb a57c 613d
00000020: 2bd2 25bc 5c9f 07bc 100a 10bc cf09 26bc
00000030: 6e15 68bc dcde efbc f061 1f3d b274 2b3d

enc.0.conv.norm.weight f4 [16]
0.9901469 0.98926026 0.9901503 0.9890463 0.9901425 0.9901788 0.99016553 0.9911235
0.99012804 0.9884567 0.9862433 0.9897319 0.9897414 0.9899971 0.98735374 0.9883467
00000000: 447a 7d3f 2940 7d3f 7d7a 7d3f 2332 7d3f
00000010: fb79 7d3f 5c7c 7d3f 7d7b 7d3f 45ba 7d3f
00000020: 0879 7d3f 800b 7d3f 717a 7c3f 125f 7d3f
00000030: b15f 7d3f 7370 7d3f 37c3 7c3f 4a04 7d3f

enc.0.conv.norm.bias f4 [16]
0.00020273372 -0.000105965926 0.00014450314 6.9666767e-06 -0.0004090198 0.00013331667 0.0003069126 0.0012720576
0.0005338073 -0.00036559594 0.0002733233 4.3639357e-05 1.8674617e-05 -0.00018818417 0.0017617896 0.00057585497
00000000: eb94 5439 063a deb8 c485 1739 4cc3 e936
00000010: b571 d6b9 ecca 0b39 1de9 a039 2cbb a63a
00000020: 34ef 0b3a 75ad bfb9 d54c 8f39 6709 3738
00000030: 6fa7 9c37 4e53 45b9 d9eb e63a f9f4 163a

enc.1.conv.conv.weight f4 [16, 16, 3, 3]
-0.00794903 0.0015101569 -0.0069331513 -0.030961217 -0.007915397 0.003509342 -0.014983592 0.011364624
-0.0026142092 0.0080623375 -0.015870243 -0.009720686 0.032039925 -0.026066408 0.007063906 0.008517095
0.010670745 -0.012020058 0.016817503 0.0061126268 -0.0067934655 -0.017680528 0.012823339 0.022267709
0.015296317 -0.014580961 0.0026404576 -0.003618978 -0.03333814 0.019270949 -0.011070829 -0.015618875
-0.012387116 0.028980544 0.0005869086 0.017381644 -0.032843556 -0.011246644 0.011349819 0.018274162
0.053337954 0.03739841 -0.030126486 -0.023286747 0.0024015305 0.024361076 0.021319028 0.015385225
-0.014038483 0.009659514 0.03510983 0.006433194 0.01772287 0.008377955 -0.016310913 0.061918665
0.015603605 0.013752874 0.015477296 -0.0019702471 0.00037368198 0.014514642 0.010093005 -0.010224866
-0.0008347823 0.004552221 0.0406786 -0.017437572 0.014238284 0.010577398 -0.003304591 -0.01444041
0.005288492 0.01827818 0.00030856754 -0.019699583 -0.027525611 -0.010218679 0.023516951 0.025280746
-0.010835319 0.008200966 -0.009615217 0.0041597276 0.022411896 -0.020794978 0.018322188 -0.012191431
-0.008499524 -0.028331721 0.040203728 -0.008001127 -0.005981247 0.00041297943 0.030033825 -0.0003529194
0.004812358 0.02738331 -0.0036449921 -0.017769102 0.0170688 -0.002290875 0.028556954 -0.011954182
-0.016240776 -0.0067928103 0.022308027 0.022547254 0.011324189 0.0067445477 0.013419762 0.006282518
0.0012631539 -0.032830134 -0.045706525 -0.025978526 -0.0059545557 0.013860674 0.03326886 -0.017352782
-0.0022089728 -0.0018633176 0.01041152 0.016411135 0.02518624 0.014180106 -0.004939 0.0054867766
0.015808964 -0.031209234 -0.022958515 0.025777595 -0.0014884687 -0.020815818 -0.02034264 -0.0015486475
0.009057458 0.0011368013 -0.008272968 -0.029362323 -0.051003814 0.004166528 -0.0029839294 -0.032151267
0.00691995 0.0010931963 0.014638196 0.009278416 -0.028040878 0.0075445017 -0.03806342 0.015524127
0.02199143 -0.002530604 0.013405234 0.00040675915 -0.016141564 0.041169222 -0.008036165 0.007128213
-0.0067567327 0.03618099 0.010556701 0.008233756 0.01726963 -0.0039330083 -0.0042878473 0.008988369
-0.026272403 -0.04216031 -0.006204195 -0.014238986 0.001585529 -0.032251403 0.01903578 -0.040733483
0.015568861 -0.011050513 0.0057859896 -0.002974878 -0.002611414 -0.02305314 -0.027744675 0.043150455
0.012168387 -0.014985511 0.016470639 0.003634534 -0.0044532185 -0.02472218 -0.013952166 -0.012049093
-0.0013007383 -0.013164728 -0.005424771 -0.02051581 -0.0030019747 0.00038005965 -0.0022953155 -0.02142418
-0.024830183 -0.0043330234 -0.003404687 -0.00064432516 0.001714374 0.004263039 0.011733342 0.039943233
-0.011635972 -0.0042526238 -0.0063826353 0.014121923 -0.0016855793 0.020013206 0.013456036 0.0059353057
-0.0058244597 -0.031727087 0.01457036 -0.00036996257 -0.05388762 0.013155908 -0.039716598 -0.001479912
0.007415346 0.0034201096 0.010988653 0.033913605 0.00034174186 -0.03507328 -0.001400351 -0.00046007038
0.019001555 -0.00476742 0.0025312102 -0.011837457 -0.004721077 0.0152109675 -0.039069414 0.03833261
-0.008729427 0.027765471 0.004025454 0.018825233 0.0057692504 0.004857445 -0.0116795795 0.009974124
0.010951429 0.0057640863 0.0026319963 0.022781523 -1.3597933e-05 0.04105165 0.063643724 -0.024460874
00000000: a63c 02bc 75f0 c53a 7d2f e3bb 61a2 fdbc
00000010: 95af 01bc fdfc 653b bd7d 75bc b032 3a3c
00000020: 2753 2bbb e517 043c 5002 82bc 8343 1fbc
00000030: 4c3c 033d 3889 d5bc 5778 e73b 498b 0b3c
00000040: 59d4 2e3c c7ef 44bc dcc4 893c 6e4c c83b
00000050: b89b debb c1d6 90bc fb18 523c c56a b63c
00000060: 679d 7a3c fce4 6ebc 870b 2d3b 602c 6dbb
00000070: 938d 08bd 1cde 9d3c 6c62 35bc 4fe6 7fbc
00000080: 55f3 4abc 9b68 ed3c c5da 193a f363 8e3c
00000090: f786 06bd d843 38bc 97f4 393c b2b3 953c
000000a0: e678 5a3d 132f 193d d2cb f6bc d9c3 bebc
000000b0: ff62 1d3b e190 c73c 3ea5 ae3c 5012 7c3c
000000c0: aa01 66bc f042 1e3c 53cf 0f3d 8bcd d23b
000000d0: 8d2f 913c b143 093c 779e 85bc 6d9e 7d3d
000000e0: 43a6 7f3c bc53 613c 7c94 7d3c 431f 01bb
000000f0: bfea c339 d2ce 6d3c 225d 253c 3286 27bc
00000100: 4bd5 5aba cc2a 953b 9b9e 263d 3dd9 8ebc
00000110: b147 693c d34c 2d3c d691 58bb 7897 6cbc
00000120: 164b ad3b 1fbc 953c 3cc7 a139 0561 a1bc
00000130: 647d e1bc 3f6c 27bc 9fa6 c03c 9119 cf3c
00000140: 9f86 31bc 585d 063c 2589 1dbc 534e 883b
00000150: 2799 b73c 3b5a aabc 6a18 963c 91be 47bc
00000160: 9641 0bbc ed17 e8bc aaac 243d 2917 03bc
00000170: 56fe c3bb 2985 d839 7f09 f63c 0a08 b9b9
00000180: fcb0 9d3b f752 e03c d2e0 6ebb 8290 91bc
00000190: ded3 8b3c 8122 16bb 46f0 e93c 79db 43bc
000001a0: 600b 85bc 3996 debb 53bf b63c 05b5 b83c
000001b0: 1789 393c 5e01 dd3b 90de 5b3c 95dd cd3b
000001c0: 6990 a53a e478 06bd c436 3bbd ebd0 d4bc
000001d0: 6f1e c3bb e117 633c ee44 083d 6c27 8ebc
000001e0: 6ac4 10bb 903a f4ba 1495 2a3c a570 863c
000001f0: 6053 ce3c ad53 683c 56d7 a1bb 6bca b33b
00000200: cd81 813c 82aa ffbc 7f13 bcbc 892b d33c
00000210: b918 c3ba ef85 aabc 9ca5 a6bc fdfb caba
00000220: bb65 143c b900 953a 588b 07bc 4189 f0bc
00000230: 60e9 50bd 5f87 883b 078e 43bb 0cb1 03bd
00000240: bfc0 e23b 9549 8f3a 0bd5 6f3c 7f04 183c
00000250: fcb5 e5bc de37 f73b 64e8 1bbd e858 7e3c
00000260: 5f27 b43c 7dd8 25bb a0a1 5b3c 4a42 d539
00000270: 503b 84bc 0fa1 283d 1eaa 03bc c993 e93b
00000280: 9567 ddbb 8532 143d 03f6 2c3c e0e6 063c
00000290: 0a79 8d3c 77e0 80bb 1281 8cbb f443 133c
000002a0: 3939 d7bc 4ab0 2cbd 8f4c cbbb a34a 69bc
000002b0: 86d1 cf3a 0c1a 04bd edf0 9b3c 27d8 26bd
000002c0: 8914 7f3c 360d 35bc 6698 bd3b 2cf6 42bb
000002d0: 4224 2bbb f0d9 bcbc cd48 e3bc 88be 303d
000002e0: ea5d 473c ca85 75bc 6fed 863c 5d31 6e3b
000002f0: 4eec 91bb 2b86 cabc a097 64bc 8f69 45bc
00000300: 897d aaba dfb0 57bc 47c2 b1bb c610 a8bc
00000310: c7bc 44bb be42 c739 016d 16bb c381 afbc
00000320: ab68 cbbc 09fc 8dbb 2b21 5fbb eee7 28ba
00000330: d9b4 e03a f7b0 8b3b 343d 403c 849b 233d
00000340: cea4 3ebc 9859 8bbb 6d25 d1bb a35f 673c
00000350: a8ee dcba bcf2 a33c b576 5c3c f47c c23b
00000360: 1cdb bebb 43f4 01bd 85b8 6e3c 89f7 c1b9
00000370: 44b9 5cbd e18b 573c dfad 22bd 9bf9 c1ba
00000380: 6efc f23b eb23 603b c009 343c fee8 0a3d
00000390: d12b b339 00a9 0fbd fb8b b7ba 9a35 f1b9
000003a0: 26a9 9b3c 0438 9cbb a9e2 253b e5f1 41bc
000003b0: 44b3 9abb 6c37 793c 4007 20bd a802 1d3d
000003c0: df05 0fbc 6a74 e33c f5e7 833b 6037 9a3c
000003d0: fb0b bd3b 342b 9f3b b55b 3fbc 826a 233c
000003e0: 9f6d 333c a9e0 bc3b 927d 2c3b 51a0 ba3c
000003f0: ad22 64b7 c625 283d a457 823d 2c62 c8bc

enc.1.conv.conv.bias f4 [16]
-0.0019169765 -0.0027876396 -0.0018987295 0.0009103883 -0.0005600281 0.00052494585 0.001110885 0.0046171495
0.00079063495 0.00050357287 0.003065687 -0.0015178698 -0.00028639237 0.0018780896 -0.0027127576 -0.0017209235
00000000: 0f43 fbba d5b0 36bb cade f8ba 20a7 6e3a
00000010: d9ce 12ba 859c 093a 1d9b 913a 754b 973b
00000020: 9d42 4f3a 3402 043a b1e9 483b 42f3 c6ba
00000030: ef26 96b9 3b2a f63a 85c8 31bb 9c90 e1ba

enc.1.conv.norm.weight f4 [16]
0.990014 0.98972917 0.9877613 0.988229 0.99014395 0.98961914 0.98982173 0.9933821
0.98805034 0.98955435 0.98819387 0.99016863 0.9901389 0.9901078 0.9888889 0.99014276
00000000: 8f71 7d3f e45e 7d3f eddd 7c3f 93fc 7c3f
00000010: 137a 7d3f ae57 7d3f f564 7d3f 4a4e 7e3f
00000020: def0 7c3f 6f53 7d3f 46fa 7c3f b17b 7d3f
00000030: be79 7d3f b477 7d3f d327 7d3f ff79 7d3f

enc.1.conv.norm.bias f4 [16]
-0.00048043625 0.00028940613 0.00016649957 0.0011306315 -0.0001747003 -7.278825e-05 0.0010636128 0.0020229998
0.0009918407 0.00016034984 0.0010307117 -0.0006653624 -0.0003487978 0.00035379652 -0.0009247868 -0.000579013
00000000: 10e3 fbb9 6fbb 9739 6396 2e39 b331 943a
00000010: c12f 37b9 e5a5 98b8 ec68 8b3a 4e94 043b
00000020: a700 823a 9523 2839 f218 873a b76b 2eba
00000030: d9de b6b9 c47d b939 646d 72ba e8c8 17ba

enc.2.conv.conv.weight f4 [16, 16, 3, 3]
0.009106444 0.008033221 -0.006808424 -0.0070620985 -0.025862828 0.009830808 0.021287438 -0.0028062665
-0.01615241 -0.0030357994 -0.010627152 0.024278227 0.025785841 -0.01603677 0.034576915 0.022318445
0.025534827 0.0017353351 0.022701582 -0.010472169 0.0035882345 -0.03135398 -0.020801099 -0.0019245647
-0.019351447 -0.0050872588 -0.03546747 -0.036878414 0.041560918 -0.0018913159 -0.0087484205 -0.012097084
0.018771082 0.01956345 -0.0006616157 -0.011439594 0.023601824 -0.008873783 0.02395759 0.022800986
-0.011192695 0.026963105 -0.0056544747 -0.010862941 0.0007474465 0.011103381 0.0046244357 -0.0004728423
0.03933895 -0.014639536 -0.0035462456 -0.005170583 0.0075034476 0.0038296354 -0.0005708868 0.017531453
-0.0016378855 0.025285915 0.007066811 -0.0023780498 -0.0067462493 -0.014876113 0.02198086 0.013969466
7.1992974e-05 0.040053688 0.007942507 0.014511007 0.038072888 0.012465689 -0.029029913 -0.012863951
0.0043248674 0.00094715337 -0.0064988364 0.020900935 0.033160206 -0.01277079 -0.008611599 0.018593691
0.0055993907 -0.020019643 0.004098842 0.021493351 0.012528634 -0.004712264 0.024247516 0.027369507
0.009707569 0.0125655215 -0.013081762 -0.023433996 0.017824072 -0.0022972508 0.017073816 -0.0049127443
0.009836438 -0.018553616 0.0058786 0.0104640005 -0.0374305 -0.012053538 -0.0426054 0.0056415573
0.009769628 0.01748583 0.016780674 -0.014937851 -0.011764436 -0.0036717325 0.0066731004 0.0055939914
0.018591348 -0.010770107 -0.008220675 -0.033382468 0.011583387 -0.0026917448 -0.0051151435 -0.003507526
-0.03476196 -0.014663152 0.010773806 0.04813375 0.005009684 0.0018388503 -0.037371438 -0.01873652
0.02260594 0.035894677 -0.009873878 -0.027132187 0.0014102596 0.01932569 -0.015056288 -0.0055034435
0.014578188 0.020342307 0.012892778 -0.014949242 -0.005904033 -0.00023341752 -0.012970455 -0.02101985
-0.0023932473 0.027837137 0.014670413 -0.0073627303 -0.028600862 -0.011204258 -0.025565006 0.013557206
-0.039215203 0.0049342816 -0.0043005184 -0.014001625 0.013917778 -0.003297735 -0.028039798 0.017434616
-0.0005839464 -0.010674021 -0.029099988 -0.034564327 0.0053040404 0.014654947 0.007891514 0.015474146
0.008718862 0.011176056 -0.00705733 -0.038149275 0.035458494 0.029312456 0.0026789648 0.0030198467
-0.0064880904 0.00847424 -0.047203343 -0.019042326 0.0054776785 -0.014311128 -0.004020961 -0.0111529725
0.0022697349 -0.007675518 -0.008243138 -0.0152971735 0.02106997 0.0063959043 0.028635195 -0.03402025
0.0020158072 0.019972997 -0.01270537 0.0039079254 0.0027870038 -0.024146125 -0.0006681803 -0.06197174
-0.016091509 -0.0010674122 0.008108286 -0.04589291 0.015712421 0.025203576 0.019407349 -0.025576223
-0.0038619465 0.012021386 -0.008789317 -0.00654865 0.0014587016 0.0044259187 -0.004719748 -0.008605564
-0.01598149 -0.0038381137 -0.011488285 -0.010414815 -0.02285531 -0.0040307133 0.012683593 -0.0007987349
-0.027697442 -0.011034274 0.025341671 0.0052825073 0.010407635 -0.025230922 -0.007951177 0.018039744
-0.0022893634 -0.030834835 -0.012643387 0.047146372 -0.025759155 0.023766195 -0.027641015 -0.05196736
-0.021129835 -0.025199866 -0.001274179 0.0012025166 0.008282808 -0.009441167 0.039550904 -0.038613617
-0.04169493 -0.03458987 0.022313451 -0.030727265 0.04257261 -0.006545855 0.008674242 -0.034968678
00000000: 3233 153c c59d 033c 3319 dfbb 2d69 e7bb
00000010: 48de d3bc 6611 213c fe62 ae3c 57e9 37bb
00000020: 0f52 84bc 43f4 46bb 821d 2ebc 22e3 c63c
00000030: d43c d33c 8b5f 83bc 86a0 0d3d 2cd5 b63c
00000040: 6a2e d13c 2f74 e33a abf8 b93c 7693 2bbc
00000050: 9628 6b3b 086d 00bd 1167 aabc ad41 fcba
00000060: ed86 9ebc 05b3 a6bb 5646 11bd d20d 17bd
00000070: c83b 2a3d 08e6 f7ba 8955 0fbc d932 46bc
00000080: d0c5 993c 8743 a03c 4770 2dba 236d 3bbc
00000090: 9d58 c13c 5863 11bc b542 c43c 22c9 ba3c
000000a0: 9161 37bc bbe1 dc3c 2c49 b9bb 7afa 31bc
000000b0: 49f0 433a f5ea 353c 9488 973b d2e7 f7b9
000000c0: e121 213d aada 6fbc 2168 68bb fe6d a9bb
000000d0: 7bdf f53b 9ffa 7a3b 91a7 15ba 1f9e 8f3c
000000e0: 51ae d6ba 6824 cf3c b590 e73b 0ed9 1bbb
000000f0: a40f ddbb f1ba 73bc 3411 b43c 30e0 643c
00000100: effa 9638 560f 243d 4a21 023c 93bf 6d3c
00000110: 51f2 1b3d e43c 4c3c 24d0 edbc 52c3 52bc
00000120: 9eb7 8d3b 634a 783a 31f4 d4bb 7038 ab3c
00000130: ffd2 073d 933c 51bc aa17 0dbc cc51 983c
00000140: 187b b73b 3c00 a4bc 944f 863b d312 b03c
00000150: e644 4d3c 5669 9abb baa2 c63c 0436 e03c
00000160: 7f0c 1f3c 9edf 4d3c e354 56bc a7f8 bfbc
00000170: ca03 923c 798d 16bb 63de 8b3c 16fb a0bb
00000180: 0329 213c c1fd 97bc 45a1 c03b 3371 2b3c
00000190: b950 19bd 347c 45bc 0083 2ebd d0dc b83b
000001a0: ca10 203c 713e 8f3c a077 893c e3bd 74bc
000001b0: 9fbf 40bc 73a1 70bb 06aa da3b cd4d b73b
000001c0: e24c 983c 1a75 30bc 03b0 06bc 0ebc 08bd
000001d0: 3fc8 3d3c fc67 30bb ef9c a7bb 85de 65bb
000001e0: 8f62 0ebd b83d 70bc 9e84 303c e527 453d
000001f0: 4628 a43b 9405 f13a cb12 19bd 557d 99bc
00000200: 1830 b93c 4c06 133d 0cc6 21bc 5244 debc
00000210: 76d8 b83a e950 9e3c a6ae 76bc 3b56 b4bb
00000220: 5ad9 6e3c e9a4 a63c 3b3c 533c aaed 74bc
00000230: 9e76 c1bb 8ac1 74b9 0882 54bc d231 acbc
00000240: 07d8 1cbb b50a e43c 2c5c 703c 0f43 f1bb
00000250: 5b4c eabc 1092 37bc b46d d1bc 0b1f 5e3c
00000260: 1fa0 20bd c1af a13b 5deb 8cbb 1267 65bc
00000270: 6407 643c d01e 58bb b8b3 e5bc 0ad3 8e3c
00000280: fb13 19ba 17e2 2ebc 1963 eebc 5393 0dbd
00000290: 84cd ad3b 4e1b 703c 694b 013c 4687 7d3c
000002a0: 8fd9 0e3c c71b 373c 2d41 e7bb 6a42 1cbd
000002b0: ed3c 113d ad20 f03c 9291 2f3b 9fe8 453b
000002c0: 0c9a d4bb 8ad7 0a3c 4b58 41bd a7fe 9bbc
000002d0: 197e b33b 3979 6abc 44c2 83bb f5ba 36bc
000002e0: d5bf 143b e982 fbbb 3a0e 07bc ffa0 7abc
000002f0: ee9a ac3c bc94 d13b 5b94 ea3c d158 0bbd
00000300: a21b 043b 699e a33c 2f2a 50bc 0e0e 803b
00000310: 2aa6 363b 18ce c5bc d228 2fba 14d6 7dbd
00000320: 57d2 83bc 69e8 8bba 9ed8 043c 34fa 3bbd
00000330: 56b7 803c bb77 ce3c 29fc 9e3c 3a85 d1bc
00000340: b618 7dbb 59f5 443c 1101 10bc 0f96 d6bb
00000350: e731 bf3a 4c07 913b 1ea8 9abb 5afe 0cbc
00000360: 9deb 82bc dd88 7bbb 5c39 3cbc e6a2 2abc
00000370: 0f3b bbbc 1314 84bb d8ce 4f3c 3162 51ba
00000380: bfe5 e2bc 19c9 34bc 5699 cf3c e218 ad3b
00000390: c984 2a3c 14b1 cebc a745 02bc 16c8 933c
000003a0: 2509 16bb 5699 fcbc 3526 4fbc 8e1c 413d
000003b0: dd04 d3bc 53b1 c23c 696f e2bc badb 54bd
000003c0: 7a18 adbc f36f cebc 5a02 a7ba c39d 9d3a
000003d0: 9db4 073c 20af 1abc 2100 223d 5029 1ebd
000003e0: 4ec8 2abd 1cae 0dbd b3ca b63c bfb7 fbbc
000003f0: 9e60 2e3d 9d7e d6bb 681e 0e3c 513b 0fbd

enc.2.conv.conv.bias f4 [16]
0.0015288625 -0.0022759344 0.002730498 -0.002642524 0.00017952999 0.0018966126 3.2123688e-05 -0.0014491256
-0.0039716177 0.003098485 -0.00335732 -0.00013096089 -0.0004679787 0.0039346344 0.0013382864 -0.00044356252
00000000: 1d64 c83a d827 15bb 28f2 323b 322e 2dbb
00000010: 3740 3c39 c297 f83a 8cbc 0638 96f0 bdba
00000020: 5824 82bb f40f 4b3b 7c06 5cbb 8c52 09b9
00000030: 0a5b f5b9 1bee 803b 7169 af3a f48d e8b9

enc.2.conv.norm.weight f4 [16]
0.98991215 0.99013174 0.98952484 0.9900206 0.98863494 0.98598206 0.99013853 0.9900234
0.9901795 0.986555 0.9885679 0.98952806 0.9899887 0.9912286 0.9896582 0.9887464
00000000: e26a 7d3f 4679 7d3f 8051 7d3f fd71 7d3f
00000010: 2e17 7d3f 5269 7c3f b879 7d3f 2c72 7d3f
00000020: 677c 7d3f de8e 7c3f c912 7d3f b651 7d3f
00000030: e66f 7d3f 28c1 7d3f 3d5a 7d3f 7c1e 7d3f

enc.2.conv.norm.bias f4 [16]
0.0013377931 -2.6926109e-05 0.0010998691 -9.8792814e-05 0.00085260544 0.00057384657 0.00068992545 0.00011613958
-4.5755194e-05 0.00089985796 -0.00017387672 0.00045286657 0.00039802183 0.0009932277 0.0007678963 0.00047688663
00000000: e358 af3a 61df e1b7 7c29 903a fd2e cfb8
00000010: 6281 5f3a 316e 163a 1ddc 343a f68f f338
00000020: 44e9 3fb8 72e4 6b3a ad52 36b9 b96e ed39
00000030: 96ad d039 312f 823a a64c 493a a406 fa39

enc.3.conv.conv.weight f4 [16, 16, 3, 3]
0.022286592 0.023717614 0.053019278 -0.008968939 0.030031094 -0.0022412909 -0.018386168 0.015579928
0.0085398825 0.04028108 -0.009618974 0.0018590539 0.0120647885 -0.0080937715 0.0023918783 -0.02743907
0.017002722 0.020152278 -0.0036820543 3.4015313e-05 0.017243223 0.006588244 -0.038621254 0.036230087
-0.004754897 -0.025508832 -0.0027709284 -0.026555445 0.009935167 0.012750519 -0.0047664675 -0.004654215
-0.0024880106 0.025571456 -0.009047794 0.0019469016 0.01382023 0.051409874 0.018297322 -0.016273161
0.019443313 -0.015806537 0.027871607 0.009653365 0.005079211 -0.035711795 -0.03521245 0.019895919
-0.013717802 -0.021174053 -0.02024206 -1.5284502e-06 0.010092244 0.040718205 0.008075622 0.0067366553
-0.015579645 0.0025010381 0.028962573 0.013513478 -0.013260373 0.010064457 0.03103972 0.023580981
-0.0032325143 0.022525111 -0.036686335 -0.00579155 -0.0010757534 -0.031275928 0.008100235 0.026675165
0.0090604 -0.0019275096 0.0022703598 0.012676802 -0.0021473942 -0.012260247 -0.040779676 -0.012365177
-0.0036217778 -0.027874395 -0.01035077 0.0038444302 -0.00618981 -0.0043945513 0.022883128 0.026487347
-0.012525964 0.0038777136 0.0031341054 -0.025652349 0.01980122 -0.00040889144 -0.020524835 -0.03183784
0.0032185155 -0.009655947 -0.024306564 0.0054844455 -0.002687511 0.030004533 -0.006730107 -0.021469226
-0.012423845 0.011131195 -0.0047938796 0.0136930095 0.009108633 0.018696178 0.007865732 -0.010326039
0.0028619822 -0.008894102 -0.004349308 -0.004003747 0.016937105 0.0016560486 -0.0397859 0.014816603
0.015509269 -0.024735246 0.02663245 0.009921643 0.009924544 -0.021071302 0.008266792 0.023622928
0.010282512 0.03324158 -0.015349166 0.019202169 0.038665853 -0.020677995 0.031309877 0.01537951
0.009821195 -0.024281017 -0.026603041 0.023124304 -0.015208617 -0.0017942566 0.017717997 -0.023983045
0.0018972075 0.015603068 0.009910779 -0.0014567545 0.034285024 -0.015344165 -0.00069559703 -0.0051762117
0.012655631 0.004562178 -0.019750927 -0.0015774907 0.017856197 0.0008272406 -0.016208827 0.011456071
0.016245143 -0.010680922 0.013709314 0.037317555 -0.014505356 -0.002643607 0.028012527 0.030638548
0.0022974422 -0.019341528 -0.005750511 -0.025364202 -0.0026918158 -0.032732856 0.038769685 -0.016005168
-0.027442288 -0.0006624386 0.003785372 0.008075399 -0.0050234594 0.014092665 -0.03567247 -0.0040842853
0.030143699 -0.005622392 0.008666198 0.02246539 -0.0056887334 -0.012989157 -0.0042329556 0.050899148
0.013244378 0.014136083 -0.023192141 -0.010546315 0.016978484 -0.03134896 0.045469485 -0.023259621
0.010169635 -0.009360462 0.022939844 -0.014197765 -0.0054646195 0.027881319 0.027878612 0.020378347
0.0017119905 0.00074740674 0.0033442797 -0.019644473 -0.021038188 -0.008206609 0.022968287 0.019550452
0.02036934 0.021847202 -0.002041257 -0.02158024 0.023380086 0.02030649 -0.016598552 -0.0090020895
-0.0026347397 -0.0076965503 0.015422874 0.016084615 -0.01983118 0.047559973 0.009109339 0.011455491
-0.017393285 -0.014588221 -0.009857551 -0.00025238373 0.0025992903 -0.019298395 -0.016357325 -0.0049860515
0.023505803 0.0010065605 -0.031283703 -0.012968763 -0.004948838 -0.0074308226 0.011393255 -0.026474047
-0.0070255115 -0.016800828 -0.012866534 0.019098848 0.0017352777 -0.024320075 -0.046999503 0.026388464
00000000: 5f92 b63c 714b c23c be2a 593d 75f2 12bc
00000010: c503 f63c 9fe2 12bb 979e 96bc f442 7f3c
00000020: ddea 0b3c c6fd 243d e798 1dbc 7fab f33a
00000030: 64ab 453c bd9b 04bc 0fc1 1c3b e7c7 e0bc
00000040: 4b49 8b3c 6416 a53c 9f4e 71bb aaab 0e38
00000050: a941 8d3c 32e2 d73b 5231 1ebd 0066 143d
00000060: f8ce 9bbb e6f7 d0bc 7798 35bb ce8a d9bc
00000070: 1cc7 223c 8ee7 503c 0730 9cbb 6382 98bb
00000080: e40d 23bb 3b7b d13c 333d 14bc 2d2f ff3a
00000090: 3f6e 623c 2993 523d 44e4 953c 4b4f 85bc
000000a0: 9547 9f3c b67c 81bc ff52 e43c 2629 1e3c
000000b0: 836f a63b 8846 12bd ee3a 10bd c4fc a23c
000000c0: a2c0 60bc 3575 adbc add2 a5bc 2625 cdb5
000000d0: f059 253c 22c8 263d 9d4f 043c 29bf dc3b
000000e0: c441 7fbc 75e8 233b eb42 ed3c a367 5d3c
000000f0: 0942 59bc 64e5 243c 0347 fe3c e72c c13c
00000100: 97d8 53bb 9586 b83c 6944 16bd 0bc7 bdbb
00000110: 4b00 8dba 301b 00bd d9b6 043c e085 da3c
00000120: 1272 143c 7da4 fcba 51ca 143b 5db2 4f3c
00000130: 4cbb 0cbb 34df 48bc 9708 27bd 5097 4abc
00000140: 595b 6dbb d858 e4bc 4796 29bc d6f2 7b3b
00000150: e4d3 cabb 2b00 90bb 6675 bb3c fefb d83c
00000160: b339 4dbc 3d21 7e3b 9065 4d3b e024 d2bc
00000170: 2b36 a23c 7b60 d6b9 b323 a8bc 6568 02bd
00000180: bbed 523b fa33 1ebc 8f1e c7bc ddb6 b33b
00000190: f420 30bb 11cc f53c 3b88 dcbb 3be0 afbc
000001a0: 628d 4bbc 9e5f 363c fa15 9dbb a558 603c
000001b0: 603c 153c ba28 993c 45df 003c 8c2e 29bc
000001c0: 1890 3b3b 91b8 11bc a484 8ebb dd31 83bb
000001d0: afbf 8a3c c50f d93a 8af6 22bd 56c1 723c
000001e0: 971a 7e3c 92a1 cabc 4c2c da3c 638e 223c
000001f0: 8e9a 223c b99d acbc 7071 073c df84 c13c
00000200: fb77 283c 5328 083d 117b 7bbc de4d 9d3c
00000210: 1660 1e3d e664 a9bc c93e 003d 57fa 7b3c
00000220: 14e9 203c fce8 c6bc 9fee d9bc 2e6f bd3c
00000230: 902d 79bc 432d ebba 5525 913c 1778 c4bc
00000240: b8ab f83a 03a4 7f3c d260 223c 92f0 beba
00000250: 746e 0c3d 1866 7bbc ba58 36ba 369d a9bb
00000260: 9059 4f3c 537e 953b b2cc a1bc cec3 ceba
00000270: 2947 923c 2ddb 583a 60c8 84bc 3fb2 3b3c
00000280: 8914 853c 09ff 2ebc 089d 603c 4bda 183d
00000290: dfa7 6dbc 5e40 2dbb 877a e53c b1fd fa3c
000002a0: af90 163b 2072 9ebc c86e bcbb 96c8 cfbc
000002b0: 2d69 30bb e312 06bd f6cc 1e3d 451d 83bc
000002c0: a6ce e0bc 80a7 2dba 0114 783b ae4e 043c
000002d0: d59b a4bb ece4 663c 4c1d 12bd 78d5 85bb
000002e0: ebef f63c 0b3c b8bb abfc 0d3c 5609 b83c
000002f0: 8e68 babb 79d0 54bc 9bb4 8abb a07b 503d
00000300: f3fe 583c 089b 673c 72fd bdbc 74ca 2cbc
00000310: 7616 8b3c c467 00bd 363e 3a3d f68a bebc
00000320: 8a9e 263c a05c 19bc 57ec bb3c be9d 68bc
00000330: 8d10 b3bb 5d67 e43c b061 e43c 7ef0 a63c
00000340: de64 e03a 9eed 433a b42b 5b3b 72ed a0bc
00000350: 4758 acbc 0375 06bc fd27 bc3c 4528 a03c
00000360: 9add a63c e7f8 b23c 9cc6 05bb 0bc9 b0bc
00000370: 9887 bf3c cc59 a63c b0f9 87bc 807d 13bc
00000380: 99ab 2cbb 5833 fcbb 39b0 7c3c e2c3 833c
00000390: 0075 a2bc 3fce 423d 563f 153c d0af 3b3c
000003a0: 5d7c 8ebc 6f03 6fbc 9181 21bc 5f52 84b9
000003b0: db58 2a3b ab17 9ebc ccff 85bc 0862 a3bb
000003c0: 3e8f c03c 91ee 833a 5723 00bd ef7a 54bc
000003d0: dd29 a2bb 427e f3bb c6aa 3a3c 1ae0 d8bc
000003e0: 4336 e6bb e4a1 89bc 28ce 52bc 3075 9c3c
000003f0: 4272 e33a e53a c7bc 8d82 40bd 9f2c d83c

enc.3.conv.conv.bias f4 [16]
0.0028954297 0.0034163354 0.0025716936 -0.005823172 -0.003790975 -0.0002807574 -0.00097306696 0.0019845744
-0.0031059051 0.0008761787 0.0036910998 -0.00086223596 0.0029228681 -0.0028377161 -0.0001053555 -0.00057899795
00000000: 40c1 3d3b 99e4 5f3b dc89 283b 4fd0 bebb
00000010: 0272 78bb 9f32 93b9 6b15 7fba a20f 023b
00000020: 718c 4bbb 5baf 653a 61e6 713b ad07 62ba
00000030: 978d 3f3b faf8 39bb 4ef2 dcb8 e5c7 17ba

enc.3.conv.norm.weight f4 [16]
0.98958415 0.9880679 0.98605645 0.9901049 0.98945963 0.9893495 0.9898693 0.9895031
0.99009335 0.98829144 0.9897004 0.9853739 0.9908054 0.99027526 0.989616 0.9901492
00000000: 6355 7d3f 05f2 7c3f 326e 7c3f 8477 7d3f
00000010: 3a4d 7d3f 0246 7d3f 1368 7d3f 1350 7d3f
00000020: c276 7d3f ab00 7d3f 015d 7d3f 7741 7c3f
00000030: 6ca5 7d3f ae82 7d3f 7957 7d3f 6b7a 7d3f

enc.3.conv.norm.bias f4 [16]
0.0012840284 0.0015707392 0.0014538489 -0.00056839985 9.664607e-05 0.00072351104 0.000638922 0.0011733433
-0.0006106651 0.00034448606 0.0013324763 0.00045359693 0.0016163012 7.702729e-05 0.00067227596 1.9009018e-05
00000000: d84c a83a 43e1 cd3a 138f be3a ab00 15ba
00000010: 77ae ca38 01aa 3d3a 547d 273a deca 993a
00000020: 0b15 20ba 239c b439 7ca6 ae3a c0d0 ed39
00000030: 12da d33a b689 a138 ad3b 303a 8e75 9f37
