Logs/ckpt/best_ssim_dec.pth (torch, 100260 bytes, 17 tensors)

dec.0.conv.conv.0.weight f4 [64, 16, 3, 3]
00000000: ead2 f5bb 70f4 70bc eafd 6f3c 50d4 da3b
00000010: 16de 8abc 5dac db3c da69 29bc ccc6 bfbc
00000020: 1c27 91bc 9e32 523c 0053 c5bc f935 2a3c
00000030: 4a43 10bd 500a 983c d533 78bc db09 6c3c
00000040: 89d4 983b 213b 3239 8207 96bb 3332 7abc
00000050: 514c ae3b bbd4 08bd 626e bc3b a54f 5bbc
00000060: 40d2 d83b e380 8b3c 3bb4 11bb 8cbf 813c
00000070: b510 52b9 8a27 293c 37fc 79bc 20fc 803c
00000080: 6e41 9c3b 5ab4 bbbb 2396 0c3d 5f69 a63c
00000090: 8c2a 913c 0998 d3bc 4266 95bc 0078 c33c
000000a0: 2916 17bd e384 c1bc a710 023c 4c8b 093c
000000b0: 6d23 253d 7ddd c3bb fbeb f93a f9f7 1abd
000000c0: 3f01 f63c 30b1 4dbc f045 f0bb 0230 71bc
000000d0: 1a6b a73c a204 ac3c a7c4 cb3c 3698 fb3b
000000e0: 3172 afbc ca99 94ba 4156 c338 2a51 faba
000000f0: 1430 b03c 6c30 b63c 4bf0 a9bc 4bdb d03b
00000100: 5fdc 87bc 5595 cabc 59ae 54bc e17f 23ba
00000110: 5d87 533b 2ff0 273b 8ef9 163c d590 bebc
00000120: e0ee efbc 8727 86bc 0958 213d 855d 65bb
00000130: f6ed 833c f567 4b3c e8ef 273c 3fc5 84bc
00000140: a897 a3bc 5a96 52bc e0b2 9d3c 339b 9ebc
00000150: 7087 ff3b 1a0e 88bc 5a5d cc3c a6f6 abbc
00000160: e9a4 ad3b f45c 493c 501b e13b 9326 25bb
00000170: 9a9b 9b3c 493b c13c 1524 f2bc ae11 823c
00000180: a175 10bc b25d a5bc 2508 1b3a 6255 cb3c
00000190: 434d 5dbc 92f2 b7bb b98d a1bb b3b8 f1bb
000001a0: eb94 9c3b 9254 063d 0b7c da3c 71c2 49bc
000001b0: ada2 92bc a2b9 db3b 6f10 013d 2243 3dbc
000001c0: 58e7 a6bc c166 7e3c 33e1 0cbc b310 1ebd
000001d0: 912e 1fbd 94b1 fabc 7b06 e7bc ff1b 63bc
000001e0: ec70 ff39 8d26 fd3c 621e a5bc ffb3 78bb
000001f0: 3c1c 2abd 5742 eb3c 0c56 c93c e2b4 61bc
00000200: 03fc d5bc 1b1e b23b accd b93c 11c4 9abc
00000210: 5235 183c e6c1 3abd dcd2 dabc f9f5 243c
00000220: 2030 aa3c 77de c5bb 304b acbc 64fa e93b
00000230: 0bc6 49bc 9b67 14bc e03a c23c f550 a43c
00000240: 8101 e0bb 22f5 aebc 9674 0ebc fac0 733c
00000250: 168b 81bb 18b1 0bbd def3 cd3c 92ca 45bd
00000260: 3a0e eebc 7715 82bc aaa2 023c cf39 c33c
00000270: ca83 093d f5fa f8bc 56cd 95bb 8d2e d4bb
00000280: 3f5b 99b9 f2a0 87bc b331 313b 174c 3abd
00000290: 6603 c9bb b534 80bc 11ce 103c 4277 cdbc
000002a0: 365d 17bc 6336 0bbc c832 7e3c 642d c9bb
000002b0: c6b4 1c3d 9bb4 1e3c d8c6 c43b ed7c c3bc
000002c0: a257 153d 21ef ccb9 a7ac 033c cb12 7d3c
000002d0: 5a23 373d 7804 53bc bb29 d93c 91c2 13ba
000002e0: 9db2 d53c 1a18 153d 8991 bf3c e386 123c
000002f0: f508 573c 4ba2 20bb f4a9 353c 5734 943b
00000300: 28f2 133c ef7f 6bba d60c 043d ed45 1cbb
00000310: 26e6 403c a9af fbbc f1e1 e73c c02b a23a
00000320: c02a 97bb 5c70 353c 72c0 e23c 1470 003c
00000330: 75aa 41bc 21e5 9ebc d5a7 db3c 6077 86bc
00000340: e91b 88bb 7221 33bd 1c84 943b f750 e7bc
00000350: b7e5 afbb e86c 263c 349a 1f3b 587e 17bd
00000360: 1536 25bc 7339 20bb 5bc2 213b 7a35 c7bc
00000370: 12ae cd3b 74ee 3f3c 3cc9 623c 0456 f23c
00000380: 0f1a fdbb c75c 103b 2cc4 223d 1cd9 d3bb
00000390: 44ee c4bc 2c7b 603d f90d 37bb 87a3 753c
000003a0: 7a40 4ebc 2822 b03c f3e5 10bd afc2 b13c
000003b0: bb3a 02bc 6a0b 8c3a 270c 48bc 6e92 37ba
000003c0: 812e b53c abee 3dbc 6fd7 d83c 991a c9bb
000003d0: 0b9c 1cbc ce8d 07bb 7787 0a3c f2ec 26bc
000003e0: 6c42 8abc a2d6 ce3b 97cd 77bc 18d0 583c
000003f0: 5ade aabc 156e 5dbc edb0 23bc 0d13 c63a
-0.0075019496 -0.014706716 0.01464794 0.0066781417 -0.016951602 0.026815588 -0.010340178 -0.023410223
-0.017718844 0.012829451 -0.024087429 0.010388845 -0.03522042 0.018559605 -0.0151490765 0.014406647
0.004664008 0.0001699743 -0.0045785317 -0.0152707575 0.005319156 -0.033406 0.0057504633 -0.013385688
0.0066168606 0.017029231 -0.002223267 0.015838407 -0.00020033384 0.010324368 -0.015257887 0.015745223
0.004768542 -0.0057282867 0.03432287 0.020313917 0.017720483 -0.025829332 -0.018237237 0.023860931
-0.036886368 -0.023622936 0.007938541 0.008395027 0.040316988 -0.005977331 0.001906752 -0.03783414
0.030029891 -0.012554452 -0.007332556 -0.014720919 0.020436812 0.020998303 0.024874045 0.007678057
-0.021416755 -0.0011337337 9.3143906e-05 -0.0019097675 0.0215073 0.022239886 -0.020744463 0.006373798
-0.016584573 -0.02472941 -0.012981021 -0.0006237012 0.0032276728 0.0025625338 0.009214772 -0.02326242
-0.02928871 -0.01637627 0.039390597 -0.003499837 0.01610468 0.012414922 0.010250069 -0.016207336
-0.019969776 -0.012853229 0.019250333 -0.019361114 0.007798128 -0.016608287 0.024946857 -0.020991635
0.0052992 0.012290228 0.006869711 -0.0025199994 0.018995095 0.02358784 -0.02955822 0.015877571
-0.008817107 -0.020186279 0.00059139944 0.024820987 -0.01350719 -0.0056136334 -0.0049302247 -0.007376754
0.0047784946 0.032795496 0.026670476 -0.012314425 -0.017899835 0.0067054788 0.031509813 -0.01155165
-0.020373985 0.015527428 -0.008598614 -0.038590144 -0.03886277 -0.030602254 -0.028201332 -0.013861655
0.00048721523 0.030902172 -0.02015609 -0.0037949083 -0.041530833 0.028718157 0.024577163 -0.013776036
-0.026121145 0.0054357178 0.02268108 -0.01889232 0.009290056 -0.045595072 -0.026711874 0.01006841
0.0207749 -0.0060384828 -0.021031946 0.0071404446 -0.0123152835 -0.009057905 0.023709714 0.020058135
-0.006836117 -0.021357123 -0.008694788 0.014877552 -0.003953348 -0.034104437 0.025140699 -0.04828889
-0.029059518 -0.015879376 0.007973352 0.023831276 0.03357295 -0.030393103 -0.004571597 -0.006475276
-0.00029250418 -0.016556237 0.002703768 -0.04548272 -0.0061344383 -0.015650133 0.008838193 -0.02508128
-0.009238532 -0.0084968535 0.015515037 -0.006139444 0.038258336 0.009686614 0.0060051493 -0.02386328
0.036460526 -0.00039088077 0.008036769 0.015446375 0.04471145 -0.012879483 0.026509156 -0.00056365976
0.026086146 0.03639994 0.023384826 0.008943292 0.013124694 -0.0024510797 0.011087883 0.004522841
0.0090299025 -0.0008983602 0.032238804 -0.002384539 0.011773622 -0.03072341 0.02830598 0.0012372658
-0.0046132505 0.011074152 0.027679656 0.0078392215 -0.011820425 -0.019396367 0.026813427 -0.016414344
-0.004153718 -0.043733068 0.00453235 -0.02823685 -0.0053679603 0.010157801 0.0024353387 -0.036985725
-0.010083695 -0.0024448305 0.0024682495 -0.024317492 0.0062768543 0.0117145665 0.013841923 0.029582031
-0.0077240537 0.0022027956 0.039737865 -0.0064650904 -0.024039395 0.054804966 -0.0027931912 0.014992601
-0.012588615 0.021500662 -0.035375547 0.021699278 -0.007948573 0.0010684554 -0.012209929 -0.0007002716
0.022116901 -0.011592547 0.026469914 -0.006137204 -0.009558688 -0.0020683887 0.008455149 -0.010188328
-0.016877376 0.0063122073 -0.0151247 0.013233207 -0.020857979 -0.013515015 -0.009990913 0.0015111879

dec.0.conv.conv.0.bias f4 [64]
00000000: ca4d b0b9 7996 f4ba 00d5 a6bb 4369 76bb
00000010: 2606 833b 2534 5139 91eb 8dba edae 54bb
00000020: 040f 493b 341e 9b37 4ffa c1ba 2aa0 d0ba
00000030: e5a5 c239 3da4 45bb f4b2 55ba 9f01 1c3b
00000040: 4649 1cba 20c5 063b 3cc2 af3a dadf 5a3b
00000050: 892b cdba 5ea5 24bb 40d1 c4ba 2b74 33bb
00000060: 2237 98b8 5388 8e3a 91b3 1fba 5a4a 873a
00000070: 726d a43b d66b 053b f59b bc3b 31e1 3939
00000080: dd6e ddb9 3162 7e3b d2e4 f33a 9d07 2e38
00000090: 3717 0dbb 8662 043b 614e a9ba f37f 473b
000000a0: a2ff 623b 42dc 3a3a 7262 2ebb 4006 aeba
000000b0: 544d 25bb 4f5b 32bb 2eb8 86bb 2fc8 e0ba
000000c0: f390 0c3b 0819 5d39 6b7d 01ba 3415 0eba
000000d0: 426f a53b e812 7d3a a6a1 af3a 80bf a53b
000000e0: 9394 813b 6d97 83bb 768e 513b 012e 48bb
000000f0: 1606 01bb fb72 4f3a 8972 88bb aecb 95bb
-0.00033627293 -0.0018660567 -0.0050913095 -0.0037599362 0.0039985357 0.00019951219 -0.001082765 -0.0032452897
0.0030679116 1.8491504e-05 -0.0014799329 -0.0015916873 0.00037126165 -0.0030157708 -0.0008151971 0.0023804677
-0.00059618463 0.0020564273 0.0013409327 0.0033397586 -0.0015653233 -0.002512298 -0.0015015975 -0.0027382474
-7.258194e-05 0.0010874368 -0.0006092126 0.0010321841 0.0050179297 0.0020358465 0.005755896 0.00017726865
-0.00042235004 0.003881585 0.0018607622 4.1491923e-05 -0.002152873 0.0020200326 -0.0012917035 0.0030441254
0.0034637232 0.0007128158 -0.002660897 -0.0013277009 -0.0025223093 -0.0027215069 -0.0041113114 -0.0017149503
0.00214487 0.00021085527 -0.0004939648 -0.00054200296 0.0050486634 0.00096540013 0.0013399615 0.005058229
0.003954479 -0.004015854 0.0031975782 -0.0030544999 -0.0019687465 0.0007913557 -0.0041640443 -0.0045713997

dec.0.conv.norm.weight f4 [16]
00000000: 6128 7c3f 4460 7d3f 4b71 7d3f f4a5 7d3f
00000010: 3b47 7d3f 5d4a 7d3f 67ff 7c3f c35d 7d3f
00000020: f98e 7c3f 4452 7d3f bd71 7d3f 5061 7d3f
00000030: a152 7d3f 2b46 7c3f 0089 7d3f 7e59 7d3f
0.98499113 0.98975015 0.99000996 0.9908135 0.98936814 0.98941594 0.98827213 0.98971194
0.9865566 0.9895365 0.99001676 0.9897661 0.98954207 0.9854457 0.9903717 0.9896468

dec.0.conv.norm.bias f4 [16]
00000000: 13ef 37ba 095b b13a 8354 873a 18f6 a03a
00000010: 9fca 183b 5c7c c3b9 77fa 983a 3449 423b
00000020: 17f1 363a 1482 fb39 1245 ca39 df55 adba
00000030: 698d a939 db28 e73a 2cf0 b938 162c 8bba
-0.0007016521 0.0013531159 0.0010324869 0.0012280373 0.002331413 -0.00037285953 0.0011671324 0.0029645683
0.0006978674 0.00047971366 0.00038579904 -0.0013224444 0.0003233955 0.0017636077 8.866223e-05 -0.0010617997

dec.1.conv.conv.weight f4 [16, 16, 3, 3]
00000000: 25aa 3b3b c2c2 b03c 0aff 94bc 7fd2 e4bc
00000010: f998 5b3b 6ad5 3cbd 2b88 963b c7e0 f6b8
00000020: 1cf7 55bc 3cc7 36bc b507 283d 3e6d 293c
00000030: 7edb a8bc 28c0 7b3c 538b 01bc 13e1 043d
00000040: b472 a33c 2001 a63a 022d 28bb d8ad 80bc
00000050: c95f 8e3c 2838 42bc 6865 04bd 9ecc 6ebb
00000060: 6dc2 923c 9d82 853c ec6c 9fbc 63f4 11bc
00000070: 3881 b23c 2865 4f3c a2e7 cbbc 5010 3bbc
00000080: 96e1 93bc a80a b33b e7b8 43bc 91cf e3bc
00000090: fa9d 8a3c be06 cbba ce3b 823b 5dda 9b3c
000000a0: 31f9 bfbb 4976 083c b12b bbba c5f7 02bd
000000b0: 2c03 563b 7b79 0e3d 53aa fdba 9a63 25bc
000000c0: c4bc 623d 4ffa 743b c885 2dbc ae6c 14bd
000000d0: e8db 14bb 0493 eebc 6331 283b 2789 42bb
000000e0: 5e71 c1bc b739 dbbb d397 a93b fb6d 8bbc
000000f0: 2e66 d4ba fd84 15bd 1df4 d1ba e5f2 e5bc
00000100: 9d07 20bc 3ff5 253c 397c 71bc e574 38bc
00000110: 1109 50bc 21b8 e7bb aba8 09bc 2e59 2dbc
00000120: e299 5dbb 4103 9cba 9a29 ca3b 729e d7bb
00000130: a583 21bd 6151 fb3b 2cf0 283c da44 e8bb
00000140: 9b5e 62bc 18a7 173c b532 ab3c 6275 0abc
00000150: 41cb b93c 4d56 e4b9 c95a 6e3b e14b ecba
00000160: 77b3 d23c e6f4 8039 c01e 813c 47d1 cd3b
00000170: 2c1f 55bc bff5 4cbb 588b 8cbc e3a8 27bc
00000180: d734 693c 98db 95bb 04b3 52bc 3513 ab3c
00000190: 957f 153c 1dfc f23b 83cc f6bc ddb5 803c
000001a0: d7ce 75bb 9d5f 9d3c 605d b1bc 05ec cbbc
000001b0: f13b d53c ab7f c13c e3ab 81bc 59f3 88bb
000001c0: ff82 5cbc a114 e33a f085 333c 232c 9fbc
000001d0: 4486 5f3b 8603 5a3c f7a1 0dbd bbdd 0b3b
000001e0: 72a6 d0bb b071 95bb 8902 6fbc eb9e a63c
000001f0: 24a7 be3c 4242 ddbb 4470 d3bc 6991 93bc
00000200: 780d 11bc e823 943b 0179 8e3c bcc3 433c
00000210: 5773 febb 4085 33bc 80af 933c c466 98bb
00000220: 5f73 3ebc 22da fbbb ec6a b83b de27 c9bc
00000230: 4488 cebb 59d1 deba d5bc 0a3c f801 993c
00000240: d017 20bb b087 9bbc fa4d 2d3c 7d35 363d
00000250: 4a75 08bd 4b38 e23c 80ae 803b bc13 5abc
00000260: 2001 c7bb 4f69 1b3d 7648 da3c a8cf e6bc
00000270: b81e 263b f1b1 a33c 9529 a8bb a1a4 28bc
00000280: 56d3 7cbb 8225 4a3c 1366 a43c b40e 383c
00000290: 7d3e 14bc e9fa 5b3c 4b0f 7a3b 8c95 4f3c
000002a0: e7ee 7ebc ecb8 1dbc 5b8f 823c 3e18 803b
000002b0: eaa7 843c 652b 23bc b8f0 9c3c 9b8b 343c
000002c0: b595 26bb 65ea 4a3d d6a4 803c a0ee ee3b
000002d0: daba 13bb 9b74 4fbc 033e f53c 0d94 253d
000002e0: 0f45 d73b 55ef d53c a139 ab3b 032b c6bc
000002f0: 6c17 f53c 6a16 08ba 18db 833c ced9 bdbc
00000300: 53d9 a9bb 918d 453a 0302 74bc 11ca d0bc
00000310: 3e8a d7ba 6ee3 a03a c243 973c 525d 6b38
00000320: 0923 42bb 8f5c e2bc a404 15bd 1f50 c03b
00000330: 24ed b0bb 7b63 e03b 80ea a9bc 352b a5bc
00000340: a4f9 1339 f233 ffbc 1a0e 09bd 7c6a af3c
00000350: f7c5 413c 6481 9dbc 380c a6bb 9dc7 613c
00000360: ba9a 273d e76b a1bc 853b 83bc 88ba 4e3c
00000370: 023d d7bc b4cc c83c b9a8 c33c 6415 223d
00000380: ffec c33c fb7b bbbb e284 b23a c67e d73c
00000390: c19c 91bc 38f8 62bc 32d5 ef3c 9dfa 41bc
000003a0: 3a46 b03c 464e 923c 5f5c 803c 63e0 89bc
000003b0: 6015 403c f17c eebc 9ec1 3a3b f0dc fc3c
000003c0: cebf edbb dcea da3c 70d7 b1bb fe32 983c
000003d0: cd2e 613c 7eba bd3c 878f 0dbd deab c4bb
000003e0: 5543 aebc cbdd 1abd a268 a2bb 1d1f 1d3c
000003f0: b1a2 9e3b cced 98bc 5372 d93c 15ba ac3b
0.002863535 0.021577243 -0.018188018 -0.027932404 0.0033507927 -0.046101965 0.004593869 -0.00011772062
-0.013059404 -0.0111559 0.041022975 0.010340987 -0.020612475 0.015365638 -0.007906753 0.03244121
0.019952156 0.001266513 -0.0025661592 -0.015707895 0.017379658 -0.011854209 -0.03232327 -0.003643788
0.017914975 0.016297633 -0.019461118 -0.008908364 0.021790132 0.012658395 -0.024890725 -0.011417463
-0.018051904 0.005463917 -0.01194594 -0.027808936 0.016921032 -0.001548968 0.0039744144 0.019025022
-0.0058585634 0.008328983 -0.0014279989 -0.031974573 0.00326557 0.03478382 -0.0019353129 -0.010094548
0.055355802 0.003738064 -0.010590978 -0.036236458 -0.0022714082 -0.029122837 0.0025664202 -0.00296838
-0.023613628 -0.0066902298 0.0051755696 -0.017020216 -0.0016204768 -0.03650378 -0.0016018186 -0.028069923
-0.00976744 0.010129272 -0.01473909 -0.011258339 -0.012697474 -0.0070715104 -0.00840203 -0.010580344
-0.0033813645 -0.0011902825 0.00616951 -0.0065801675 -0.039432187 0.007669613 0.010311168 -0.007088286
-0.013816501 0.009256147 0.020898202 -0.008450838 0.022679927 -0.00043551848 0.003637003 -0.0018027985
0.025720341 0.00024596526 0.015761733 0.0062810513 -0.01300792 -0.0031274406 -0.017156288 -0.010233137
0.014233789 -0.0045732968 -0.012860063 0.020883182 0.009124656 0.007415308 -0.030126816 0.01571172
-0.003750732 0.019210631 -0.02165097 -0.024892816 0.026029559 0.023620447 -0.015829032 -0.0041794
-0.013458966 0.0017324873 0.010957226 -0.019430226 0.0034107128 0.013306504 -0.03457829 0.0021341878
-0.006367498 -0.0045606717 -0.014588007 0.02033945 0.023273058 -0.0067522833 -0.025810368 -0.018013673
-0.008853309 0.004520882 0.017391684 0.011948522 -0.0077652144 -0.010957062 0.01802802 -0.0046509225
-0.011624186 -0.0076859156 0.0056279805 -0.024555143 -0.006302865 -0.0016999646 0.008467873 0.018677697
-0.0024428256 -0.0189856 0.010577673 0.044484604 -0.03331498 0.027614733 0.003927052 -0.013310369
-0.006073132 0.037942227 0.02664588 -0.02817519 0.00253479 0.01998231 -0.00513191 -0.010293157
-0.0038578114 0.012338044 0.020068204 0.011233974 -0.0090481015 0.013426521 0.0038156088 0.012669932
-0.015559888 -0.009626608 0.015937498 0.00390914 0.016193349 -0.0099590765 0.019157752 0.011019613
-0.0025418822 0.049539942 0.0157036 0.00729163 -0.0022541792 -0.012662078 0.029936796 0.040424395
0.0065695117 0.026115099 0.0052253758 -0.024190431 0.029918395 -0.0005191328 0.016095683 -0.023175146
-0.005183378 0.00075360487 -0.014893058 -0.025486978 -0.0016444398 0.001227481 0.018464927 5.6115277e-05
-0.0029622933 -0.027632026 -0.03638138 0.005868926 -0.005399363 0.0068477965 -0.020741701 -0.020162204
0.00014112011 -0.0311527 -0.033460714 0.02141308 0.011826984 -0.019226737 -0.0050673746 0.013780502
0.040919043 -0.019704772 -0.016019592 0.012617715 -0.026274208 0.024511673 0.023884164 0.03957118
0.02391672 -0.0057215667 0.0013619924 0.026305567 -0.017774941 -0.013853125 0.029276464 -0.011839536
0.021517862 0.01785959 0.015669046 -0.016830629 0.011723846 -0.029112311 0.0028496752 0.03086707
-0.007255531 0.026723318 -0.0054272935 0.018579002 0.013744068 0.023160215 -0.034560706 -0.0060019335
-0.02127234 -0.037809175 -0.004956321 0.0095899375 0.0048411717 -0.018668078 0.026543772 0.005271206

dec.1.conv.conv.bias f4 [16]
00000000: ebf4 86bb 21cd 833b 3d58 d4bb 818e b93b
00000010: 2782 45bc 28f8 873b df07 0c3c 4de2 8e39
00000020: bfeb c73b e902 8dba fe31 513c 1b9f 10b7
00000030: 4038 dd38 1d3e 2bbb e44f 05bc 52fd e9bb
-0.004118552 0.004022256 -0.0064802454 0.0056627397 -0.0120549565 0.0041494556 0.0085467985 0.00027252958
0.006101101 -0.0010758314 0.012768267 -8.6201135e-06 0.000105485786 -0.0026129552 -0.008136723 -0.007140794

dec.1.conv.norm.weight f4 [16]
00000000: a66e 7d3f e981 7c3f 366e 7d3f eb2f 7c3f
00000010: 8c87 7d3f 81f6 7c3f 6e69 7c3f 9d43 7d3f
00000020: b32f 7d3f 4735 7d3f 437e 7d3f 418e 7d3f
00000030: f55d 7d3f 122e 7d3f 2e22 7d3f ad69 7d3f
0.9899696 0.9863573 0.98996294 0.98510617 0.99034953 0.98813635 0.9859837 0.98931295
0.9890091 0.9890942 0.99020785 0.9904519 0.9897149 0.9889842 0.9888028 0.98989373

dec.1.conv.norm.bias f4 [16]
00000000: 79a0 74ba 9131 cdb8 3866 8eba ce95 4539
00000010: e678 29bb 27dd a1b9 620e 1b3a fab3 aeb8
00000020: 2e7e 0e3b a4cd 6e39 5bda 4e3b 478e 943a
00000030: d187 e4b9 61fd 23ba 262b cfba 96c5 07bb
-0.00093317736 -9.784394e-05 -0.0010864204 0.0001884319 -0.0025859415 -0.00030873084 0.0005914924 -8.33049e-05
0.002174269 0.00022774056 0.0031563255 0.0011333906 -0.0004358874 -0.0006255713 -0.0015805706 -0.0020717136

dec.2.conv.conv.0.weight f4 [64, 16, 3, 3]
00000000: 00ee 643b ec03 c0bc 74a8 86bc 8f2a 9abb
00000010: 7c59 603c 5de5 483c 0f44 41bc b09e 1a3d
00000020: c204 90bc a973 193c ea07 c03b eb82 fdbc
00000030: 5a33 fb3b f49e d9bc a895 b53b 10aa 6cbc
00000040: 2ac7 d73c 5d02 823a bc0c 5f3c 9ad1 ab3c
00000050: 672d 9bbb f058 88ba 06b3 e8bc 548b acbc
00000060: f887 f83c 6a40 913c ee88 efbb 377a da3b
00000070: f5c5 8fbc 4368 023b f234 cbbc 5093 19bc
00000080: c289 58bc 48ba 3c3c cd3b 3ebc 0344 a43c
00000090: c8fd 053d d9ca 14bc 179f bd3b 098e b43a
000000a0: 5b3c c7bc dfe9 dfbc f94e 2dbc 73fb a03c
000000b0: 3534 bbbc c254 e63b 7687 4f3b f9ff 80bb
000000c0: 3762 ffbb 1b4f f0bb e946 d6bc c5d7 d73b
000000d0: 3504 313c ced0 bcba 8c74 33bc ad55 acbc
000000e0: 13d0 63bc 7837 253c 68ad 2f3b d5d1 433b
000000f0: 943d 8c3c 85e6 4e3c 4379 d03c 2c47 b23c
00000100: 88ce 26bd 0966 4c3b c85d fa3b b024 9b3c
00000110: ed21 a33c 7071 c2bc ca99 4dbb e743 9ebb
00000120: e0ea da3b 8390 ce3b 9718 d5bc 8cf5 d13b
00000130: 3735 4abb d8b4 853c ac64 10bb 33ca dd3c
00000140: 0603 5338 c288 9b3c e91b d43b 01b7 58bd
00000150: d205 19bc 9d25 353c b030 693c db93 78bb
00000160: 6e95 cbbb 92b3 c43c 1c50 5cbb b473 313b
00000170: 085d 64bc 7e83 1bbc 22f1 ddbb 5820 b13b
00000180: 4589 623c 2c6c d3bb 4ff3 dbbc 958d 1fbc
00000190: 39fd f6bb 24a6 d13c 4586 8b3c c6ba 67bc
000001a0: e2a8 563d 36cd 63bc 53d5 f93b e372 d3bc
000001b0: 02c7 a53c b4ba 083c c903 56bb b52a 86bb
000001c0: 40d8 3bbc 458e 69bc 4e13 72bb 88f4 7b3c
000001d0: c2ae 243c e68b 143c 1eee 283c e915 45bc
000001e0: 3aad 8abc fa2c 383d 529c d0bc 5421 5dbc
000001f0: 749e 72bb 1af3 ef3b d0b9 97bc c5b9 ecbb
00000200: 6b34 42bd b82a 47bd 4f40 e63b 2464 babb
00000210: 7ef7 a6bb 5ac5 563c bd1e e0bb f8c2 1abd
00000220: 45ad b1bc 3046 0d3c 2621 c33c ee60 843c
00000230: 0e11 60bc 9520 8abc 8a53 553b 8f8b 023d
00000240: f5b7 12bc 05b0 e6bc 04b4 c2bc 8859 203d
00000250: aaf9 67bc 0e29 c9bb 4125 db3b dd98 bd3c
00000260: b2a5 ed3c 5644 073b 070a 473b b7eb 243d
00000270: 89d2 4d3b 2929 b53c 7a1e a53b c5be ecbc
00000280: 3965 c43c d1f3 b73c ad00 a13a 68d7 24bb
00000290: c552 213c fedd 87bc adea 8dbc 3975 4d3c
000002a0: 39c8 aabc 8271 55bc ea4b 043b 4226 243d
000002b0: 35b9 76bc f664 0bbd f94a 223c ca26 023d
000002c0: 0d24 dbba 097a 77b9 14e3 c1bc 14c0 5d3c
000002d0: 1204 613c 754d 693c 2f10 1a3d 71e5 1cbd
000002e0: 07ff 04bd 2816 5d3c ca8e 623c 6ffd d93c
000002f0: cc3e abbc b3ee 863c c104 913c 53f5 c5bb
00000300: ee22 4ebb b942 123c 0ecc babc 0bb2 1e3c
00000310: 0906 e53b bb18 153c c897 76ba 48d2 9dbc
00000320: f7c1 72bb 24d6 323c 6f2a debc d57b 70bc
00000330: 6010 8cbc 1d03 91bc 1fcf 33bb 2d98 56bb
00000340: b675 b43c 1403 58bc 0dd7 2c3c 3958 babb
00000350: be5b e6ba d658 37bc fe49 2b3c ed90 df3b
00000360: cd27 bbbc d8e9 d53c dc34 fdbc 6e42 4dbc
00000370: e39b 1dbc 35ea ba3c 48b6 bcbb 06b3 06bc
00000380: d35d 8abc 0b8c 04bb 7e66 d03b a7ed 043d
00000390: 9e1d 823c 0a35 9e3c 3997 8e3c 2792 603b
000003a0: ea14 b1bc cec8 86ba 9774 b1bc 333e 623c
000003b0: fc76 c23c 0d0b 25bc 4714 8fb9 e467 69ba
000003c0: f236 e53c 13f0 273c 67eb a33b 9857 b73c
000003d0: cbfb 583c 5f42 56bc 6eb8 ce3b 9c60 933c
000003e0: 9fdb e23c 9b95 16bc f79e 673c 81d1 fbbc
000003f0: 1db0 f43c 7a18 16bc 03b2 d1bb b386 32bc
0.0034931898 -0.02343937 -0.016437747 -0.0047047804 0.01369321 0.012261716 -0.011796012 0.037748992
-0.017580394 0.009365954 0.0058603184 -0.030946216 0.0076660337 -0.026565053 0.005541522 -0.014444843
0.026340086 0.0009918917 0.013613876 0.02097397 -0.004735637 -0.0010402482 -0.028405678 -0.02106253
0.030338272 0.01773091 -0.0073100245 0.006667401 -0.017550448 0.001989857 -0.02480552 -0.009373501
-0.013216438 0.011519022 -0.011610937 0.020051962 0.032712728 -0.009081566 0.0057867873 0.001377524
-0.024320772 -0.027333198 -0.010577911 0.01965115 -0.022852043 0.007029147 0.0031666434 -0.0039367643
-0.0077936905 -0.007333649 -0.02615686 0.006587001 0.010804226 -0.001440549 -0.01095308 -0.021036947
-0.013904589 0.010084026 0.002680624 0.0029879708 0.017119206 0.012628202 0.025448447 0.021762453
-0.040724307 0.0031188747 0.007640574 0.018938392 0.019913638 -0.023735732 -0.0031372183 -0.004829872
0.0066808313 0.0063038482 -0.026012702 0.0064074453 -0.0030854472 0.016321585 -0.0022032661 0.027073955
5.0309136e-05 0.01898611 0.0064730537 -0.0529089 -0.009339767 0.011056331 0.014232799 -0.0037929926
-0.0062128818 0.024011407 -0.0033617085 0.002707702 -0.013938196 -0.009491799 -0.00677313 0.005405467
0.013826673 -0.006452104 -0.026849417 -0.009738346 -0.0075375107 0.025591917 0.017031798 -0.014143651
0.052407153 -0.013903907 0.007624307 -0.025811618 0.020236496 0.008345295 -0.0032656065 -0.0040944465
-0.011465132 -0.014255111 -0.0036937776 0.015378125 0.010051431 0.0090665575 0.010310678 -0.01202915
-0.016928304 0.044964768 -0.025465164 -0.013496716 -0.0037020715 0.007322681 -0.01852122 -0.007224294
-0.04741327 -0.048624724 0.007026709 -0.005688207 -0.0050954213 0.013108576 -0.006839602 -0.037783593
-0.021689067 0.008622691 0.023819517 0.0161595 -0.013675941 -0.01686124 0.0032551014 0.031871375
-0.008954992 -0.028160105 -0.023767479 0.039147884 -0.014158646 -0.0061389273 0.0066877906 0.02314418
0.029009674 0.0020640097 0.0030370967 0.040263858 0.0031406006 0.022114353 0.0050390335 -0.02889956
0.023974048 0.022455128 0.0012283527 -0.0025152806 0.009846394 -0.016585346 -0.017323816 0.012540155
-0.020847427 -0.013027551 0.002018685 0.040075548 -0.015058805 -0.03403183 0.00990557 0.031775273
-0.0016719118 -0.00023601217 -0.02366785 0.0135345645 0.013733881 0.014239659 0.03761309 -0.03830475
-0.032469776 0.013494052 0.013827989 0.026610104 -0.020903967 0.016471243 0.017702462 -0.006041208
-0.0031453925 0.008927041 -0.022802379 0.009686003 0.006989245 0.0091001345 -0.00094067724 -0.019265309
-0.0037041882 0.010915313 -0.027119843 -0.014677961 -0.017097652 -0.01770168 -0.0027436686 -0.0032744512
0.022028785 -0.013184328 0.010549319 -0.0056867865 -0.0017574949 -0.011190614 0.010454653 0.0068226964
-0.022846127 0.026112482 -0.030908994 -0.012528045 -0.009619686 0.022816757 -0.0057590343 -0.008221393
-0.016890442 -0.0020225074 0.0063598743 0.032453205 0.015883263 0.0193124 0.017406093 0.00342668
-0.021616418 -0.0010283233 -0.02166204 0.013808775 0.023738377 -0.0100734355 -0.00027290193 -0.00089037255
0.027980302 0.010250109 0.0050024274 0.022380635 0.013243626 -0.013077348 0.006308607 0.017990403
0.027692614 -0.009190942 0.014137021 -0.030739548 0.029869134 -0.009161109 -0.0063993945 -0.010896373

dec.2.conv.conv.0.bias f4 [64]
00000000: 0609 45ba 1cd0 ef39 3467 543b 8155 153b
00000010: a08d 063a 78bb d93a c232 dfba 24b0 d2b9
00000020: cf59 ee3b 8dc9 1c3b fa7c eab8 80b3 433b
00000030: a2c1 20bb 8542 9839 bd3f 58bb b39f 9aba
00000040: d4ee 2bbb d8d0 f9bb ae4d a63b 0592 a0ba
00000050: a744 32ba 8f26 5a39 3167 91ba fa01 0e3b
00000060: d3f8 1e3b 68a6 dc39 2523 09b8 83ae 76ba
00000070: cbcc 9cba 26e1 793a 8e82 97bb 4288 1cbb
00000080: 8e04 d1ba 43e7 61ba 8fcc 92bb 5181 68bb
00000090: d482 c03a d069 123b c775 69b8 d10e 153b
000000a0: 9b38 f0ba 413e dd3a 48f7 70ba f1f0 7137
000000b0: 8746 1839 fc59 243c 965f 8d3b ccbc 0b3a
000000c0: 4a09 8abb beeb dfba 0047 b7bb b86c f9ba
000000d0: 37cb 21bb 924d 99ba eab6 723a 86cc d039
000000e0: 4d90 9a3a 8858 75bb 2133 19bb 490e cdba
000000f0: 9adf e93a 14de b33b 00f4 1539 87f2 af3b
-0.0007516298 0.00045740686 0.0032410147 0.002278656 0.0005132798 0.0016611656 -0.0017028677 -0.00040185556
0.0072738896 0.0023923845 -0.00011181268 0.002986163 -0.0024529477 0.0002904126 -0.0032996975 -0.0011796862
-0.0026234882 -0.007623773 0.005075178 -0.0012250548 -0.0006800391 0.00020804464 -0.0011093376 0.0021668659
0.0024257198 0.00042085652 -3.2696076e-05 -0.00094101595 -0.0011962889 0.0009532146 -0.0046237176 -0.0023884927
-0.0015946792 -0.00086175295 -0.0044799517 -0.003547747 0.0014687427 0.0022340901 -5.5661218e-05 0.0022744427
-0.0018327417 0.0016879515 -0.0009192121 1.4420818e-05 0.00014522123 0.01003122 0.0043143732 0.0005330562
-0.004212533 -0.0017083806 -0.0055931807 -0.0019029593 -0.0024687776 -0.0011696091 0.00092588237 0.00039825233
0.0011792273 -0.0037436802 -0.0023376422 -0.0015644516 0.0017843128 0.0054891203 0.00014300644 0.0053694877

dec.2.conv.norm.weight f4 [16]
00000000: 9177 7c3f cbea 7c3f 40d4 7c3f c248 7d3f
00000010: c571 803f 9dd0 7c3f 0d8b 7c3f abe0 7b3f
00000020: c8d8 7c3f 7660 7c3f 2264 7d3f 31fa 7c3f
00000030: d615 7d3f 2e57 7d3f 08b4 7c3f ac0c 7d3f
0.98619944 0.98795766 0.9876137 0.98939145 1.003472 0.9875582 0.98649675 0.9838969
0.9876828 0.9858469 0.98980916 0.9881926 0.98861444 0.9896115 0.98712206 0.9884746

dec.2.conv.norm.bias f4 [16]
00000000: e21b 103a ce36 1939 6511 b43a 8d30 c0ba
00000010: eada 3bba 1b9a 21b9 4a8a b538 2538 efba
00000020: d0e1 10ba 72fb f93a de9f 903a ed33 4c3b
00000030: 1120 89ba f32c 2c3a 2fa9 4838 b140 3e3b
0.0005497319 0.00014611633 0.0013738094 -0.0014662907 -0.00071661046 -0.00015411565 8.656511e-05 -0.0018250985
-0.0005526813 0.0019072129 0.0011033972 0.003115888 -0.0010461827 0.0006567977 4.784128e-05 0.0029030258

dec.3.conv.conv.weight f4 [16, 16, 3, 3]
00000000: f52b 363c 58b7 6dba 9a86 123b c239 e73b
00000010: 6de5 13bb eb02 8cbc 2337 29bd 6024 2ebb
00000020: 60ad b93c c605 cc39 4af7 71bc 686d 82bb
00000030: 510f 1abc 5a3c 7f3b 4216 c7bc 4c45 943c
00000040: 2a4e 3f3a dee9 2a3d 3e03 89bc bfbb 0e3d
00000050: 137e a23b f474 1c3b 32f7 81bc 53f0 bb3c
00000060: 7d3d 00bd 17d5 823b 5b03 4abc 312e 7fbb
00000070: 5812 d73a ff33 ea3b 8da8 efbb 6d12 b73c
00000080: 2920 723c 5e0d 1a3c 860d a4bc d304 8a3c
00000090: 3763 a23b e7f2 dd3b 1732 e4bc 0431 453b
000000a0: 942a b3bc e622 47bc e61b f938 87e5 44bc
000000b0: df9f 943a 3d02 b7bc 6a5b f03b 7e5c 4abc
000000c0: 28fe 0abc 228e 373c 0c6f c8bb 4e7a 87bc
000000d0: 6f52 ec3c 8c5e 2e3b cfd7 16bb 8cb3 613c
000000e0: f9ad c73c e582 d2bb 6315 3abc 5643 d4bc
000000f0: 2b89 d0bb 5227 fab9 0269 d9bc 3db4 fe3c
00000100: 3f6b 13bd c855 86bc 0993 503c f704 37bc
00000110: 76b3 dabb 9436 863c a193 903c 558b 40bc
00000120: d966 253d a756 e2ba 11b6 babc 44c8 f53c
00000130: f30e 933c c847 74bb 4b95 4dbc 3600 cf3a
00000140: 68c3 b23a fe73 88bb dab1 f8bb baf4 883c
00000150: 5bfa 08bd 01ce 10bc a4ed d7bc 1221 8abc
00000160: a406 913c 1969 77bc 2b8f 3fbd a66d de3c
00000170: 0835 cb3c 87ad 473b b4a4 50bc a892 72bc
00000180: b243 14bb 5bc0 21bb 62ff c7bc bc77 a8bc
00000190: 9d2e ecbb faf5 c8bb aaea 98bc 241c 35bc
000001a0: 9e37 873c 0c0f 3bbd ac29 82bc a5e0 483c
000001b0: 02fe 85bb 7104 46bc 06f6 04ba 15f9 373c
000001c0: 8386 203b 731d 4fbc 5a85 183c 8894 99bb
000001d0: 4925 22bb e653 6e3b c533 553c 5804 34bc
000001e0: db4b 80bc ec1f a13c 08de f63a fbf8 afbb
000001f0: 310c 253d 7a1d cc3c d769 913c 37d8 12bd
00000200: cb24 9cbc 5b0e 63bc 67c5 75bb b83f 07bd
00000210: d60a acbc bf49 a83c 422f 98bb e6db 24bc
00000220: 3674 2cbd 24b6 10bb 7022 82bb 900b cc3a
00000230: b070 fabc 250f ec3c 825e 533b 2e97 4ebc
00000240: c059 c6bb 773a db3a a417 38bc f35b aa3c
00000250: fd4f 783c 5ea6 12bc e0f2 d8bc c36d 87bc
00000260: bb8b a4bc dcdc 013d e40f 2e3d 997b 273d
00000270: c9ac 01bc 592e c6bb c6fe 91bc b838 19bb
00000280: 9786 d5bb 1076 273c 666a 8dba 7ef8 d6bc
00000290: 4489 4b3c a2f9 c2bc a0d1 183d 1eb0 c8bb
000002a0: b937 c53c 467d cebc 5a2c 2c3c 2d7b e03c
000002b0: e399 643c c5a1 ffbb 0a83 8ebc c58b 183a
000002c0: e8b9 143c d227 483c ac1a 073c 7a9a 8d3c
000002d0: d6e3 b5bb 46d4 ddbc 3d5b 06bc bab8 33bb
000002e0: bb79 153c 70f2 ff3b bb9d 603d 983b b4bb
000002f0: 0ab3 6bbc 57fd 583b 07d8 b93c ed89 0ebd
00000300: 12d9 e93c eb5b 1c3d fd74 983c e1a1 15bc
00000310: 917e 9c3b 1e0a 0abb c043 dfbc b82b 333c
00000320: 2201 2abd c864 de3c c9fe 173d 117f 26bc
00000330: d169 743a 67f3 afbc 6324 813c 23e6 833b
00000340: d5d8 bdbb 1f4b aa3c 37e2 213c 460f 00bc
00000350: 76d5 003d 8ab4 fc3c ef4c 65b9 85fa e73c
00000360: dead afbc c42f 1dbc c406 3b3c 0f1b 5f3c
00000370: f2fc 083c f5da d6bc f333 a8bc a6f9 ac3c
00000380: 8e97 623b 1d27 81bc 3391 f0bc 6353 b03c
00000390: 4f89 a93c dd53 853c 4758 2dbc c950 64bc
000003a0: ac94 f3bc 08d8 b53a b501 8b3c 8b9e 9ebc
000003b0: 85ed 24bd 223a 363c 2fc6 a9bc c545 19bc
000003c0: 3403 713b 6a76 1b3c bc7e d13c 5721 ad3c
000003d0: 6f0c ccbc 2fc2 2bbc 4324 04bc 0983 06bd
000003e0: b162 a83c e38b e6bc 64f6 1c3c a44b 82bc
000003f0: 6049 143c 615a 9f3b 57f0 373c 4b26 003c
0.011118879 -0.0009068153 0.002235806 0.007056446 -0.0022567168 -0.017091235 -0.041312348 -0.0026571974
0.02266568 0.00038914214 -0.014768431 -0.0039803274 -0.009403066 0.0038945884 -0.024302606 0.01809945
0.0007297719 0.04172694 -0.016725179 0.034847017 0.004958877 0.002387342 -0.015864942 0.022941744
-0.03130864 0.0039926874 -0.012329902 -0.0038937444 0.0016408665 0.0071473117 -0.007313794 0.022347653
0.014778175 0.009402601 -0.02002598 0.016848003 0.004955675 0.006773341 -0.027855916 0.003008903
-0.021870889 -0.0121543165 0.00011878442 -0.012017614 0.0011339149 -0.022339934 0.007335116 -0.012351153
-0.008483447 0.011203321 -0.0061167534 -0.016537812 0.028847901 0.0026606647 -0.0023016816 0.0137757175
0.024374949 -0.0064242953 -0.011357638 -0.025911015 -0.006364008 -0.00047713012 -0.02653933 0.031091804
-0.03599095 -0.016398326 0.012730368 -0.011170617 -0.0066742254 0.016383447 0.01764852 -0.011751969
0.040381286 -0.0017268256 -0.022791894 0.03000272 0.017951464 -0.003727423 -0.012547801 0.001579291
0.0013638558 -0.004164218 -0.007589561 0.016718257 -0.033441883 -0.008838178 -0.026358433 -0.016861472
0.017703362 -0.015100741 -0.046767395 0.027151894 0.02480556 0.003046842 -0.012734581 -0.014805473
-0.0022623357 -0.0024681303 -0.024413768 -0.020564906 -0.007207705 -0.0061328383 -0.018666584 -0.0110540725
0.016506013 -0.045668647 -0.015889011 0.012260591 -0.004089118 -0.01208602 -0.0005072061 0.011228819
0.0024494238 -0.012641299 0.009309137 -0.0046868958 -0.0024741462 0.0036365925 0.013012831 -0.010987364
-0.01566117 0.019668542 0.0018834481 -0.005370257 0.04029483 0.0249164 0.017750664 -0.03585073
-0.019060513 -0.013858403 -0.0037501694 -0.03301975 -0.02100126 0.020542977 -0.0046443054 -0.0100621935
-0.042103015 -0.002208122 -0.0039713904 0.0015567411 -0.030571312 0.028815815 0.0032252376 -0.012609286
-0.0060531795 0.0016725798 -0.011236105 0.020795798 0.015155789 -0.008950798 -0.026483 -0.01653183
-0.02008616 0.03170477 0.042495623 0.040889356 -0.00791473 -0.0060480055 -0.01782168 -0.0023379754
-0.0065162885 0.010221019 -0.0010789155 -0.026241537 0.012422863 -0.023800675 0.03730929 -0.0061245104
0.024074422 -0.02520622 0.010508621 0.027402485 0.013952705 -0.007801267 -0.017396469 0.0005819167
0.009077527 0.012216525 0.008246105 0.017285574 -0.005550842 -0.027078759 -0.008200464 -0.0027423338
0.009123261 0.007810883 0.054837923 -0.005500268 -0.014385948 0.0033109987 0.022686018 -0.034799505
0.02854589 0.038173597 0.018610472 -0.009132833 0.00477583 -0.002106316 -0.027253985 0.010935716
-0.041504987 0.027147666 0.037108216 -0.010162131 0.0009323629 -0.021478368 0.01576442 0.004025237
-0.0057936707 0.020787774 0.009880594 -0.0078161415 0.031453572 0.030847806 -0.00021867802 0.0283177
-0.021445211 -0.009593908 0.011415187 0.013617291 0.008361088 -0.026227454 -0.020532584 0.021115135
0.0034575197 -0.015765721 -0.029366111 0.021524137 0.020695357 0.01627534 -0.010580129 -0.013935276
-0.029733978 0.0013873586 0.016968587 -0.019362709 -0.04026558 0.011122258 -0.020724384 -0.009355013
0.003677559 0.009488681 0.025573127 0.021134062 -0.024908273 -0.010483309 -0.008065286 -0.03283981
0.020554872 -0.028142875 0.0095802285 -0.015905209 0.009050697 0.004863069 0.011226735 0.00782163

dec.3.conv.conv.bias f4 [16]
00000000: 2699 94bc 4e8d 363b bf74 993c 69fd dabb
00000010: c8a6 85bc 940e 1a3c d40c 3eba 5c46 333c
00000020: ceb3 b5bc 181a 593c f793 473c 30d3 ddbc
00000030: 5180 363c 843d 9f3c 0f72 e6bb 19f0 9339
-0.018139433 0.002785522 0.018732427 -0.006683041 -0.016314879 0.00940289 -0.00072498363 0.010942068
-0.022180464 0.01325085 0.012181274 -0.027078241 0.011138991 0.019438513 -0.00703264 0.00028216912

dec.3.conv.norm.weight f4 [16]
00000000: 0f23 7d3f 0c68 7d3f 01e4 7c3f 9f81 7c3f
00000010: 2a40 7c3f 9ddf 7c3f 4877 7d3f 4b59 7d3f
00000020: 7da8 7b3f e07a 7d3f 42ea 7b3f d26b 7c3f
00000030: 1b98 7e3f a887 7c3f be38 7b3f b573 7a3f
0.9888162 0.9898689 0.98785406 0.98635286 0.98535407 0.98778707 0.99010134 0.98964375
0.9830397 0.9901562 0.98404324 0.9860202 0.99450845 0.98644495 0.98133457 0.97832805

dec.3.conv.norm.bias f4 [16]
00000000: e0ef 6ebb d591 aeb9 4985 793b 8935 ddba
00000010: 3f72 89bb 1492 623a 8821 6aba 25bd 703a
00000020: d572 aebb 5e83 5a3a 75e0 5b3a f970 d4bb
00000030: 4303 3fba 6b14 ac3a 5d24 6dbb e754 acbb
-0.0036458895 -0.0003329652 0.003807383 -0.0016876917 -0.0041945274 0.0008642983 -0.0008931388 0.0009183458
-0.0053237476 0.0008335615 0.0008387634 -0.006483194 -0.0007286558 0.0013128644 -0.0036185004 -0.0052591446

readout.weight f4 [1, 16, 1, 1]
00000000: 581e 0fbe b304 18bc 6269 713e eb0e 6cbd
00000010: e169 29be cd7f 933d 6708 21bd 9d03 043d
00000020: 6371 50be bf50 3b3d 0fde 333e cf59 4dbe
00000030: e972 373e 5c43 ef3d 8660 1abe 63ed 14be
-0.13976419 -0.009278464 0.23575357 -0.057631414 -0.16544296 0.072021104 -0.039314654 0.03223001
-0.20355754 0.045731302 0.17565177 -0.2005379 0.17914928 0.1168277 -0.15075883 -0.14543681
