Logs/ckpt/last_decoder.pth (torch, 415571 bytes, 17 tensors)

decoder_r.upc1.main.0.weight f4 [64, 64, 3, 3]
0	0xba21a980	-0.000616692
1	0xba5b7510	-0.00083716307
2	0xba409338	-0.0007346156
3	0xba20ea8c	-0.0006138466
4	0xba5e1a52	-0.000847255
5	0xba40ee7b	-0.0007359755
6	0xba1039d7	-0.0005501783
7	0xba4a68f8	-0.000772133
8	0xba2f0e85	-0.0006677884
9	0xba26671f	-0.00063477637
10	0xba7a6096	-0.00095511356
11	0xba55a9b2	-0.0008150592
12	0xba256aba	-0.0006310154
13	0xba7ecca9	-0.0009719828
14	0xba57178f	-0.00082051096
15	0xba09decb	-0.0005259334
16	0xba5ea479	-0.0008493136
17	0xba3925c8	-0.000706282
18	0x39bd8eb0	0.000361552
19	0x3a27aa47	0.0006395918
20	0x3a4ccca0	0.0007812474
21	0xb9d9b093	-0.00041521023
22	0x39819fda	0.00024723896
23	0x3a0ce717	0.0005375011
24	0xb9042951	-0.00012603893
25	0x39a19726	0.00030820927
26	0xba1bd3fe	-0.000594437
27	0x3b3e8e13	0.0029076382
28	0xbaf88d5a	-0.0018963024
29	0xbaec7cd4	-0.0018042573
30	0xba8ad9fd	-0.001059353
31	0xba855b47	-0.0010174297
32	0x3a56f87d	0.000820048
33	0xbb05199e	-0.0020309458
34	0x3af75bfa	0.0018872016
35	0xba2291fb	-0.00062015624
36	0x3b65bd6a	0.0035055527
37	0x3b82793c	0.0039817374
38	0x3b4094bf	0.0029385535
39	0x3b949c2c	0.0045352187
40	0x3b9b4327	0.00473823
41	0x3b5278f4	0.003211555
42	0x3b520ceb	0.0032051157
43	0x3b8cf72e	0.004301927
44	0x3b77281f	0.0037713123
45	0x3aa385b3	0.0012475759
46	0x3adbefc9	0.0016779836
47	0x3ab14742	0.0013525265
48	0x3ab6e3fc	0.0013953443
49	0x3af7a2d6	0.0018893133
50	0x3ac84130	0.0015278216
51	0x3a7d8145	0.0009670447
52	0x3abc06fe	0.0014345346
53	0x3a90b3e7	0.0011039943
54	0x3ccd525f	0.025063692
55	0x3bbb404e	0.005714453
56	0x3c2af16f	0.010433539
57	0x3c2228ab	0.009897391
58	0xbc76914b	-0.015049289
59	0xbb2e2fee	-0.0026578861
60	0x3b26d0ac	0.0025453968
61	0xbc1788e8	-0.00924895
62	0x3c1205af	0.008912488
63	0x3a5b3f22	0.00083635945
64	0x3aa3e81b	0.0012505086
65	0x3a35404c	0.0006914183
66	0x3a8b51f9	0.0010629288
67	0x3ac5dbbd	0.0015095394
68	0x3a6cc6f2	0.00090323307
69	0x39b59f67	0.00034641774
70	0x3a401c6d	0.00073284545
71	0x390a5e10	0.00013195747
72	0xba81f50a	-0.0009914946
73	0xba8949a9	-0.0010474223
74	0x3b340399	0.0027467965
75	0xbb527e56	-0.003211876
76	0xbbd60e1d	-0.006532444
77	0xbb185596	-0.0023244373
78	0x3b3f9f0b	0.0029239084
79	0x3a48f232	0.00076654844
80	0x3b0917a7	0.002091864
81	0x3a06a2d7	0.00051359594
82	0x3a18ce65	0.0005829095
83	0x3a228174	0.00061990996
84	0x3a124b19	0.00055806484
85	0x3a19f77c	0.0005873365
86	0x3a1bf752	0.00059496344
87	0x399a8e0b	0.00029479
88	0x39859878	0.00025481335
89	0x39580fa6	0.00020605195
90	0x35e4ce5c	1.7047382e-06
91	0xbaa2d8e3	-0.0012424256
92	0xba13461e	-0.0005618053
93	0x377a64da	1.49246425e-05
94	0x3ad7b0a0	0.0016455837
95	0x3b56ac52	0.003275652
96	0x3a80c132	0.0009823202
97	0x3b6c9d2f	0.003610443
98	0x3a65341f	0.00087434234
99	0xba9d73a1	-0.001201261
100	0xba854a6e	-0.0010169277
101	0xba65dc45	-0.00087684795
102	0xba992ef0	-0.0011686962
103	0xba7b111e	-0.0009577441
104	0xba556d45	-0.00081415876
105	0xbab3214e	-0.0013666542
106	0xba97cf3f	-0.001158215
107	0xba86edc5	-0.001029425
108	0xba2296f9	-0.0006202306
109	0xba2ba1f3	-0.00065472646
110	0xba2960cd	-0.0006461263
111	0xba31b8e9	-0.0006779568
112	0xba3f6af4	-0.0007302009
113	0xba49a170	-0.00076915976
114	0xba23d803	-0.0006250145
115	0xba2f108d	-0.00066781865
116	0xba4697d7	-0.00075757265
117	0x3aae55d8	0.001330073
118	0x3b072d66	0.0020626425
119	0x3b13da7f	0.0022560654
120	0x3952c460	0.00020100316
121	0x3a96c70e	0.0011503415
122	0x3af6f814	0.0018842244
123	0xba8027d4	-0.0009777495
124	0xb96e0d94	-0.00022702507
125	0x3a4c1df3	0.0007786445
126	0xbcb91c39	-0.022596465
127	0x3d12c995	0.035836775
128	0xbc8ffe90	-0.01757744
129	0x3baf2faa	0.005346258
130	0x3d9087ca	0.0705715
131	0xbbc30b05	-0.0059522414
132	0xbd016106	-0.03158667
133	0xbd77b696	-0.060476862
134	0xbcbb6a16	-0.022877734
135	0xbb29d6fe	-0.00259155
136	0xbb69fa2c	-0.0035702093
137	0xbb82c6eb	-0.003990998
138	0xbabe7634	-0.0014531077
139	0xbb25ee55	-0.002531906
140	0xbb64c067	-0.003490472
141	0xb93a77a6	-0.00017782915
142	0xba5475a9	-0.0008104691
143	0xbafbbd03	-0.001920611
144	0x3b794340	0.003803447
145	0xbc252b71	-0.010081158
146	0xbade5377	-0.001696213
147	0xbbbd5c12	-0.005778798
148	0xbc37196b	-0.011175494
149	0x3b08308b	0.0020780887
150	0x3972b7ba	0.00023147362
151	0x3bc59a4a	0.0060303556
152	0x3b58b767	0.00330683
153	0xbae358c0	-0.0017345175
154	0xbae4622c	-0.0017424277
155	0xbb0583ce	-0.0020372751
156	0xbac81079	-0.0015263698
157	0xbac3e001	-0.0014944078
158	0xbae8be0c	-0.0017756834
159	0xbac6b2c1	-0.0015159474
160	0xbabd5e9d	-0.0014447753
161	0xbadb58d9	-0.0016734853
162	0xbae2fd48	-0.0017317915
163	0xbae419d4	-0.0017402717
164	0xbb05786c	-0.0020365966
165	0xbac790a3	-0.00152256
166	0xbac36bb4	-0.0014909417
167	0xbae8756b	-0.0017735189
168	0xbac61a3f	-0.0015114023
169	0xbabcc890	-0.0014403034
170	0xbadae2a2	-0.0016699622
171	0xbbc45aed	-0.0059922845
172	0x3a12041e	0.00055700715
173	0xba9e2129	-0.0012064326
174	0xbb65a65a	-0.003504178
175	0x3b89c44a	0.0042043077
176	0x3b0cfec8	0.0021514166
177	0x3b9114ef	0.0044275443
178	0x3c01fb05	0.007933383
179	0x3bbe08fc	0.005799411
180	0xbc9b121e	-0.018929537
181	0xbc2d029c	-0.010559704
182	0xbc5f2af4	-0.013621081
183	0xba5e42b9	-0.00084785704
184	0x3cf57760	0.029964149
185	0x3bc2444b	0.0059285513
186	0xbbeb2058	-0.0071754865
187	0x3c7ef05e	0.015560238
188	0xbc2eb7a2	-0.010663899
189	0xbb9e7830	-0.004836105
190	0xbba3069f	-0.0049751545
191	0xbbae9daa	-0.0053288536
192	0xbb9ea822	-0.0048418203
193	0xbb97d729	-0.0046338034
194	0xbb9c153e	-0.0047632745
195	0xbb2e34d3	-0.0026581779
196	0xbb0e4dd5	-0.0021713872
197	0xbb1a865c	-0.002357862
198	0xbad2cc8c	-0.0016082688
199	0xbb5fdb8d	-0.0034157962
200	0xbc0aa7f6	-0.008462897
201	0xbb85bda9	-0.004081447
202	0x3bf0b6f2	0.0073460275
203	0x3beaee69	0.007169534
204	0xbaaf4e31	-0.0013374743
205	0x3ba0bc25	0.004905241
206	0xb9cb0f17	-0.0003873042
207	0xb9d9620e	-0.00041462522
208	0xbb9606dc	-0.0045784544
209	0xbb8d707f	-0.004316389
210	0x3affc7c9	0.0019514497
211	0xbad5f179	-0.0016322575
212	0xbb6a0944	-0.003571109
213	0xbad91000	-0.0016560555
214	0xbbbfa8db	-0.0058489866
215	0xbc0a54f5	-0.008443107
216	0x3aa526b2	0.0012600033
217	0x3a91a081	0.0011110456
218	0x3a82dbf9	0.000998377
219	0x3a9e635e	0.0012084057
220	0x3a8e2862	0.0010845775
221	0x3a830d48	0.0009998465
222	0x3a8ffb39	0.0010984904
223	0x3a85e0c5	0.0010214081
224	0x3a812993	0.0009854309
225	0x3a9b21ab	0.0011835595
226	0x3a8c4733	0.0010702371
227	0x3a85fa3a	0.0010221668
228	0x3a95b493	0.0011421613
229	0x3a88d7c6	0.0010440282
230	0x3a844049	0.0010089959
231	0x3a878b24	0.001034115
232	0x3a7de626	0.0009685479
233	0x3a7c53d5	0.0009625529
234	0xbaff8c58	-0.0019496782
235	0xbc355934	-0.011068631
236	0xbb73a109	-0.0037174842
237	0xbb3f17e0	-0.0029158518
238	0xbc76a0dd	-0.015053001
239	0xbbcf92ec	-0.006334653
240	0xbbb3b945	-0.0054847323
241	0xbc7c8956	-0.015413603
242	0xbbc3360b	-0.00595737
243	0x3a907742	0.001102187
244	0x3a875748	0.0010325694
245	0x3a8a7433	0.0010563195
246	0x3a8bc853	0.001066456
247	0x3a83365d	0.0010010708
248	0x3a861bd8	0.0010231687
249	0x3a796574	0.0009513714
250	0x3a6d0ca3	0.00090427155
251	0x3a757992	0.00093641237
252	0x393989f2	0.00017694363
253	0xb8d2578e	-0.00010029889
254	0x383ca0d1	4.4972465e-05
255	0x393fad4c	0.00018279738

decoder_r.upc1.main.0.bias f4 [64]
0	0x3c99eec2	0.018790606
1	0x3cfc7fa0	0.030822575
2	0xbc8af692	-0.016963277
3	0xbcd024c6	-0.02540816
4	0x3c310e8b	0.01080669
5	0xbb5b4e4c	-0.0033463417
6	0x3c7cd21e	0.015430955
7	0xbc44e97e	-0.0120185595
8	0x3c3249c8	0.010881849
9	0xbce08165	-0.02740545
10	0x3cf90341	0.03039706
11	0xbcaeeaf9	-0.021352278
12	0x3c0b1c80	0.008490682
13	0x3c00dc49	0.00786502
14	0x3c259652	0.01010664
15	0x3c1d030b	0.009583245
16	0x3a656a0e	0.000875146
17	0xbbb1c00c	-0.005424505
18	0xbbb3e0b2	-0.0054894323
19	0xbc0a4701	-0.00843978
20	0xbb6e4bc9	-0.003636109
21	0x3ca0d3ef	0.019632308
22	0x3cbad303	0.022805696
23	0xbc4fefc0	-0.012691438
24	0x3c4f97d2	0.012670474
25	0x3c31e6b9	0.010858231
26	0x3d01e4ea	0.03171245
27	0x3c0cfbfb	0.008604999
28	0x3c40ede0	0.011775464
29	0x3a3626ee	0.000694855
30	0x3d22a146	0.039704584
31	0x3ca95588	0.020670667
32	0xbbf87873	-0.007582718
33	0x3ce9af28	0.028525904
34	0x3ced6394	0.028978147
35	0x3d061d05	0.03274252
36	0xbc29508d	-0.010334146
37	0xbc3567a1	-0.01107207
38	0xbd1df973	-0.03856797
39	0xbbe2f14b	-0.006925737
40	0xbb6e4a46	-0.0036360188
41	0x3b8fcd1a	0.0043884637
42	0x3c238279	0.009979838
43	0xbc459016	-0.012058279
44	0x3bd36f4f	0.006452478
45	0x3d414308	0.047183067
46	0x3cabb203	0.020958906
47	0x3d51f90b	0.051262897
48	0x80000e84	-5.207e-42
49	0x00001c90	1.0246e-41
50	0x0000230e	1.2575e-41
51	0x000019e2	9.285e-42
52	0xbbac17ba	-0.005251852
53	0x3cc6c1a5	0.024262259
54	0xbbe7ada1	-0.0070702587
55	0xbbf324d4	-0.0074201617
56	0x3ccb067f	0.024783371
57	0x3c609b3c	0.013708886
58	0x3cb4aa21	0.02205378
59	0x3cca950a	0.02472927
60	0xbbe20d6b	-0.006898572
61	0xbba3adf9	-0.0049951044
62	0xbbd366a7	-0.006451446
63	0xbaac6e33	-0.00131554

decoder_r.upc1.main.1.weight f4 [64]
0	0x3973b5b1	0.00023241971
1	0x3b897837	0.004195239
2	0xbd249e62	-0.040190108
3	0x3dac53bd	0.08414409
4	0x3cc4d056	0.024025124
5	0xb7d14768	-2.4947993e-05
6	0x3de138f7	0.10997193
7	0xbbf8729d	-0.0075820223
8	0x3e4256ae	0.18978378
9	0xb968d91b	-0.00022206122
10	0x3dec7bb4	0.11547032
11	0xb98505d0	-0.00025372067
12	0x023fd3f4	1.4093291e-37
13	0x261f358d	5.523678e-16
14	0x3e1bff1d	0.15234037
15	0xb9a82097	-0.00032067738
16	0x3df7df3c	0.121031255
17	0x0d044d45	4.076865e-31
18	0x8f802589	-1.2636232e-29
19	0x3dc57283	0.09640982
20	0x3e364af9	0.17802037
21	0x397eac06	0.00024287411
22	0x3e11aaf9	0.14225377
23	0x3d9f6f68	0.07784921
24	0x391b77dd	0.00014826604
25	0x0163409c	4.173967e-38
26	0x3d85b0a8	0.06527835
27	0x01d8d065	7.96449e-38
28	0x062f9b88	3.3028108e-35
29	0x3dc5bc49	0.09655053
30	0x3c83d212	0.01609138
31	0x3e256041	0.16149999
32	0x3dd9d1cd	0.106357194
33	0x3cb9dcc4	0.022688277
34	0xb9d56273	-0.00040699876
35	0xb9bd0de4	-0.00036059238
36	0x80d517af	-1.9569457e-38
37	0x846a409f	-2.753624e-36
38	0x3d60c666	0.054876707
39	0x3d4dda96	0.050257288
40	0x3ccdaf2e	0.025107946
41	0x3dec8eee	0.11550699
42	0x3dfc824d	0.123295404
43	0xb9bce576	-0.00036029116
44	0x3e177e08	0.14794171
45	0x3e4a88ae	0.19778702
46	0x3d33aa68	0.043863684
47	0x3de430b8	0.11142105
48	0x00001ed7	1.1063e-41
49	0x000018c6	8.887e-42
50	0x0000174e	8.36e-42
51	0x00001432	7.245e-42
52	0x3b42b0cc	0.002970743
53	0x3da754e7	0.08170491
54	0x3db753a6	0.089515015
55	0x010ef6ba	2.6258299e-38
56	0x813f93aa	-3.5187103e-38
57	0x3de5911c	0.11209318
58	0xb8dfe226	-0.00010675592
59	0x028a12ce	2.028807e-37
60	0x033d8009	5.5689085e-37
61	0x8197232a	-5.55191e-38
62	0x811594d8	-2.7473768e-38
63	0x3dcd6f26	0.100309655

decoder_r.upc1.main.1.bias f4 [64]
0	0x39648b88	0.00021795754
1	0xbb8d2da4	-0.0043084193
2	0x3c97c4d3	0.01852647
3	0xbcd30c52	-0.02576271
4	0xbc467a0e	-0.012114061
5	0x3520ce44	5.99048e-07
6	0x3c807bef	0.015684096
7	0xbbcc6c65	-0.0062385076
8	0xbccbb708	-0.02486755
9	0x38fd3fbb	0.00012075851
10	0xbb5dbfc1	-0.0033836218
11	0x386312a3	5.4138374e-05
12	0x80510598	-7.440682e-39
13	0x24fd114c	1.0975056e-16
14	0x3c80424b	0.015656611
15	0x389e21b5	7.5403055e-05
16	0xbd410c71	-0.047131006
17	0x8d644e2f	-7.0352034e-31
18	0x8f8c4e9b	-1.3835344e-29
19	0xba2d10e3	-0.00066019426
20	0xbd4434a7	-0.047901776
21	0x390e1802	0.00013551119
22	0xbd649494	-0.055805758
23	0xbd3788cf	-0.044808205
24	0xb733028a	-1.0669823e-05
25	0x80650f64	-9.280906e-39
26	0x3d9dbfde	0.077026114
27	0x810181d4	-2.3786705e-38
28	0x85b511d7	-1.7027712e-35
29	0x3c911bc9	0.017713444
30	0x3d588371	0.052859727
31	0xbc58a1ab	-0.013222138
32	0xbd9ec1e9	-0.07751829
33	0xbc186f24	-0.009303842
34	0x38e3ebf9	0.00010868157
35	0x391761e3	0.00014436948
36	0x002424db	3.319299e-39
37	0x83b34eed	-1.0538795e-36
38	0xbcf2b434	-0.029626943
39	0xbd25fdc4	-0.040525213
40	0x3d0beac0	0.034159422
41	0x3a98c5a0	0.0011655577
42	0xbbfc12d7	-0.0076926756
43	0x3941d6b3	0.00018485896
44	0xbd1fc638	-0.039007396
45	0xbc1548cd	-0.009111595
46	0xbbbb28ff	-0.005711674
47	0xbd92be12	-0.07165159
48	0x8003775d	-3.18326e-40
49	0x80073e2c	-6.65152e-40
50	0x8000b0f2	-6.3476e-41
51	0x8002c483	-2.54166e-40
52	0xbacde21a	-0.0015707642
53	0xbd0aed5c	-0.03391777
54	0x3cf8d601	0.030375483
55	0x006ad221	9.809943e-39
56	0x80e51730	-2.1038647e-38
57	0xbdcfaf13	-0.10140815
58	0x39675abb	0.00022063676
59	0x82f112eb	-3.5422626e-37
60	0x02e588a7	3.372696e-37
61	0x810b4a09	-2.5583386e-38
62	0x8045f2dc	-6.423771e-39
63	0xbc8591c8	-0.016304865

decoder_r.upc2.main.0.weight f4 [64, 64, 3, 3]
0	0x372ab729	1.0175435e-05
1	0xb71208e0	-8.7043445e-06
2	0xb72a3473	-1.0145001e-05
3	0x36f5ec32	7.3290657e-06
4	0xb61ec4bb	-2.3658347e-06
5	0xb5b0d036	-1.3173619e-06
6	0x37cb71b2	2.425243e-05
7	0x3514aae1	5.538296e-07
8	0x36cecea9	6.163337e-06
9	0xb6d3a98f	-6.3080292e-06
10	0xb67258c5	-3.611248e-06
11	0x35ef5fc6	1.7834761e-06
12	0x36f484bd	7.2872194e-06
13	0xb790412c	-1.7196486e-05
14	0x374104b3	1.1504791e-05
15	0x370e759c	8.491243e-06
16	0x37480e50	1.1924261e-05
17	0x373b99e3	1.1181898e-05
18	0x36f2978c	7.2298044e-06
19	0x36a2304d	4.833599e-06
20	0x36c2d719	5.806691e-06
21	0x369cdfe5	4.675227e-06
22	0x3617f929	2.2645784e-06
23	0x365ea2df	3.3175381e-06
24	0x36a5410b	4.924955e-06
25	0x362c99a3	2.5719426e-06
26	0x3672cd5a	3.618034e-06
27	0x37f03692	2.863564e-05
28	0x37ec20da	2.814869e-05
29	0x37edb997	2.8339024e-05
30	0x37ea155f	2.7904925e-05
31	0x37e5a9ba	2.7377962e-05
32	0x37e86fb9	2.770858e-05
33	0x37e96898	2.782447e-05
34	0x37e5f46c	2.7412745e-05
35	0x37e8ae11	2.7737611e-05
36	0xb6dd893b	-6.602289e-06
37	0xb6c3f9de	-5.8405412e-06
38	0x360f56f8	2.1359283e-06
39	0xb53a790d	-6.946655e-07
40	0x36b3f974	5.363656e-06
41	0x36ed00d0	7.063245e-06
42	0xb4601aa0	-2.0871312e-07
43	0x3676dd48	3.678566e-06
44	0x361a4fb3	2.299418e-06
45	0x371ede9e	9.469366e-06
46	0x372b4268	1.0207856e-05
47	0x36ec15fa	7.0359065e-06
48	0x375a6b73	1.301883e-05
49	0x376d25db	1.4135115e-05
50	0x373ab5d9	1.1128804e-05
51	0x37311eb0	1.0557167e-05
52	0x3745cdca	1.1790029e-05
53	0x3718ea5c	9.114472e-06
54	0x36dc7de2	6.5711656e-06
55	0xb71898e0	-9.0955e-06
56	0xb5b903d0	-1.3784684e-06
57	0xb6e44348	-6.802762e-06
58	0xb7fe98e3	-3.0350353e-05
59	0xb74a0510	-1.2041317e-05
60	0x37c4b3b7	2.3448707e-05
61	0xb74d93c3	-1.2253356e-05
62	0x3807e4c9	3.239958e-05
63	0x36c371f3	5.8247183e-06
64	0x36a09091	4.7852013e-06
65	0x36d249f2	6.267096e-06
66	0x3767f895	1.38265505e-05
67	0x37314e1c	1.0568208e-05
68	0x373c8ee9	1.1238947e-05
69	0x37955507	1.7801778e-05
70	0x377cab6b	1.5060282e-05
71	0x374e735a	1.2305414e-05
72	0x36b640d2	5.4315688e-06
73	0x3729b38c	1.0114989e-05
74	0x362bec79	2.561863e-06
75	0xb5d743ec	-1.6038516e-06
76	0x365156fb	3.1194056e-06
77	0xb697cee9	-4.524238e-06
78	0xb70f1d00	-8.530216e-06
79	0xb68619db	-3.996521e-06
80	0xb73dde1c	-1.1316992e-05
81	0xb7ca8b09	-2.414502e-05
82	0xb7e68d41	-2.7483913e-05
83	0xb80e0b6c	-3.3866076e-05
84	0xb7ded87d	-2.6565272e-05
85	0xb7ae90c0	-2.080982e-05
86	0xb84682ca	-4.7328685e-05
87	0xb81ba062	-3.7104248e-05
88	0xb81a343f	-3.676512e-05
89	0xb8816712	-6.170398e-05
90	0xb751bf70	-1.2501943e-05
91	0xb78188ab	-1.544164e-05
92	0xb748f123	-1.1977073e-05
93	0xb7635651	-1.35503515e-05
94	0xb78db677	-1.6893477e-05
95	0xb76f64b6	-1.4268959e-05
96	0xb74fd910	-1.23887e-05
97	0xb7849377	-1.5804295e-05
98	0xb763d205	-1.3579153e-05
99	0x37918b67	1.7350261e-05
100	0x3851aae6	4.9988645e-05
101	0x37f45c2c	2.9129988e-05
102	0x376d8f7b	1.41597075e-05
103	0x38523c8a	5.0124283e-05
104	0x37efe37e	2.8596955e-05
105	0x35e6072b	1.7138422e-06
106	0x3814e154	3.5495803e-05
107	0x378d32f6	1.683224e-05
108	0xb5be771f	-1.4190772e-06
109	0x37680fa3	1.3831918e-05
110	0x363fe8fc	2.8596833e-06
111	0x363da5ef	2.825978e-06
112	0xb529e79c	-6.329444e-07
113	0xb657a15d	-3.2131422e-06
114	0xb6dff640	-6.674585e-06
115	0x36cba8a5	6.0695043e-06
116	0xb7432820	-1.1632248e-05
117	0x36d9ffda	6.496889e-06
118	0x3717e2f0	9.053139e-06
119	0x3719c228	9.164716e-06
120	0x370a5789	8.245822e-06
121	0x3737508d	1.0926405e-05
122	0x37397ddd	1.1056164e-05
123	0x36f9276a	7.4253667e-06
124	0x3729ed9b	1.0128507e-05
125	0x372d018d	1.0311965e-05
126	0x372c3856	1.0265116e-05
127	0x375f90bd	1.3325535e-05
128	0x375eb49d	1.3274283e-05
129	0x374af4e2	1.20971545e-05
130	0x3780334e	1.528268e-05
131	0x37801015	1.5266278e-05
132	0x373b2ba4	1.1156229e-05
133	0x37711ddc	1.4371672e-05
134	0x3771f529	1.44218e-05
135	0xb8110a23	-3.4580135e-05
136	0xb7c46752	-2.3413133e-05
137	0xb7d57e8c	-2.5450507e-05
138	0xb80c3593	-3.3428496e-05
139	0xb760ac3d	-1.3391543e-05
140	0xb7a8b9b2	-2.0113632e-05
141	0xb8023a33	-3.1048618e-05
142	0xb78bc57a	-1.6662048e-05
143	0xb7ab064e	-2.0387724e-05
144	0xb6bf223f	-5.6962303e-06
145	0xb718244b	-9.068356e-06
146	0xb6c091db	-5.7390257e-06
147	0xb71c6b68	-9.323332e-06
148	0xb7546dd0	-1.2661752e-05
149	0xb711e2c3	-8.695471e-06
150	0xb7034548	-7.824339e-06
151	0xb723738e	-9.742462e-06
152	0xb6e8a369	-6.9331622e-06
153	0xb6aabd0c	-5.0884028e-06
154	0xb70c76ee	-8.372341e-06
155	0xb69c8940	-4.6651403e-06
156	0xb70fbbfe	-8.5672345e-06
157	0xb74953d5	-1.2000052e-05
158	0xb701078d	-7.690757e-06
159	0xb6da1e53	-6.5004365e-06
160	0xb71194bb	-8.6773025e-06
161	0xb6b7c45f	-5.4766856e-06
162	0xb7b3cbd4	-2.1433378e-05
163	0xb7f553b4	-2.9245253e-05
164	0x36690c59	3.4726893e-06
165	0xb7847e31	-1.5794389e-05
166	0x371c5667	9.318442e-06
167	0x3782f349	1.5610496e-05
168	0x3708e3ef	8.159302e-06
169	0x3807092b	3.2195047e-05
170	0x3838e8e3	4.408591e-05
171	0x3758c4af	1.2920397e-05
172	0x3706d42f	8.036425e-06
173	0x37ba7ee8	2.2232023e-05
174	0x3720997b	9.572478e-06
175	0x36431707	2.9070668e-06
176	0x3793ec71	1.7633867e-05
177	0x37cbe29e	2.4305013e-05
178	0x378c1319	1.6698194e-05
179	0x37ecfe5a	2.8251834e-05
180	0xb78b0779	-1.6573571e-05
181	0x3573b9af	9.079476e-07
182	0x37787d53	1.4811131e-05
183	0xb63b50cb	-2.79122e-06
184	0x36d86ceb	6.4499814e-06
185	0x379871e4	1.8172846e-05
186	0x379e2782	1.8853465e-05
187	0x38043294	3.1518357e-05
188	0x38318857	4.2327065e-05
189	0xb6bd2fbc	-5.638196e-06
190	0xb70a6cee	-8.250803e-06
191	0xb732fb23	-1.0668099e-05
192	0xb5ff5edb	-1.9026587e-06
193	0xb7097f74	-8.195511e-06
194	0xb70e7fca	-8.493613e-06
195	0xb680465f	-3.8228895e-06
196	0xb6bab336	-5.564095e-06
197	0xb6b5e3e9	-5.4207526e-06
198	0xb77550f5	-1.4621987e-05
199	0xb4e2b782	-4.22293e-07
200	0x37d46601	2.5319869e-05
201	0x3678c9f1	3.7072425e-06
202	0x3704c928	7.914648e-06
203	0x385e7d8d	5.3045853e-05
204	0xb7aeba3d	-2.082914e-05
205	0x37340333	1.0729581e-05
206	0x3814932c	3.5423014e-05
207	0xb79c7009	-1.864882e-05
208	0xb74b7e33	-1.2129126e-05
209	0xb75a3f66	-1.3008574e-05
210	0xb7a456e9	-1.9590794e-05
211	0xb76d6652	-1.4150124e-05
212	0xb7784283	-1.4797438e-05
213	0xb756c832	-1.2802006e-05
214	0xb7063754	-7.9999045e-06
215	0xb71542cd	-8.896645e-06
216	0xb348c7e2	-4.674792e-08
217	0x377ee00b	1.5191744e-05
218	0x3748ea1c	1.1975437e-05
219	0x378d7dbd	1.6867061e-05
220	0x37b07bbd	2.1038455e-05
221	0x36e95071	6.9533057e-06
222	0x34837d8c	2.4492e-07
223	0xb6856949	-3.9759657e-06
224	0xb5fd04c1	-1.8851352e-06
225	0xb7081a45	-8.112348e-06
226	0xb766b0d0	-1.3750236e-05
227	0xb7127a4e	-8.730754e-06
228	0xb73fa635	-1.1423185e-05
229	0xb7ab39d7	-2.0411722e-05
230	0xb75ac595	-1.3039816e-05
231	0xb726dc05	-9.945598e-06
232	0xb792876d	-1.7467619e-05
233	0xb722a31a	-9.6939275e-06
234	0x3764343b	1.360202e-05
235	0x37815901	1.5419444e-05
236	0xb68d3968	-4.2088104e-06
237	0x37d1c7fb	2.5007865e-05
238	0x37e851f9	2.7694727e-05
239	0x37230049	9.7156235e-06
240	0x37bd2fb8	2.2552776e-05
241	0x37f6987b	2.939649e-05
242	0x371745a3	9.016515e-06
243	0xb7850cb0	-1.5860744e-05
244	0xb729e63e	-1.0126792e-05
245	0x36f47826	7.285754e-06
246	0xb7e48a9b	-2.7244261e-05
247	0xb8037994	-3.1346062e-05
248	0x3644dbe3	2.9334267e-06
249	0xb81ad785	-3.691718e-05
250	0xb806be46	-3.2125296e-05
251	0xb7625a5e	-1.349169e-05
252	0x36592ecb	3.2362757e-06
253	0x3651f581	3.128633e-06
254	0x35d00763	1.5499357e-06
255	0x363b7171	2.7931203e-06

decoder_r.upc2.main.0.bias f4 [64]
0	0x3c4ba6dd	0.01242992
1	0x3c1a6cbd	0.009425339
2	0xbcec2b8f	-0.028829364
3	0xbc82c83b	-0.015964618
4	0xbbc3cadc	-0.0059751105
5	0xbc7dd28e	-0.015492095
6	0x3ccecc41	0.02524388
7	0xbc43c0fa	-0.011947865
8	0xbc473815	-0.012159367
9	0x3d039af3	0.032130193
10	0x3cc8cf1e	0.024512824
11	0xbca4a785	-0.02009941
12	0x3b65824b	0.0035020288
13	0xbc81365f	-0.015772996
14	0xbc83f9fb	-0.01611041
15	0x3ca00fc5	0.01953877
16	0x3c81aac2	0.015828494
17	0x3c6e86ff	0.014558553
18	0xbc152ea6	-0.00910536
19	0xbc9ce955	-0.01915423
20	0xbcb88b60	-0.022527397
21	0x3c88494d	0.016636515
22	0x3c4c36ab	0.012464206
23	0x3cc5cf50	0.024146706
24	0xbb803780	-0.003912866
25	0x3c5f2295	0.013619085
26	0xbcb6c847	-0.022312297
27	0x3cd3d488	0.025858179
28	0x3c5b2704	0.013376001
29	0x3c2ef183	0.010677698
30	0x3c59be96	0.013290068
31	0xbcd42b9e	-0.025899705
32	0x3c850f96	0.016242784
33	0xbc038001	-0.008026124
34	0xbc2bdd77	-0.010489813
35	0x3c5ef8c8	0.013609119
36	0x3bb41b33	0.0054964065
37	0x3c1c92ea	0.009556511
38	0xbbfdd2ea	-0.00774609
39	0xbc295f64	-0.010337684
40	0x3c1433ec	0.009045582
41	0x3c1d5fbd	0.009605345
42	0xbacdd044	-0.0015702327
43	0xbb630726	-0.0034641712
44	0xbd0300d5	-0.031983215
45	0x3cba2896	0.022724431
46	0x3c9c88b0	0.019108146
47	0xbcd9ab6f	-0.026571004
48	0x3c927560	0.017878234
49	0xbd078161	-0.03308237
50	0x3c0f320c	0.008739959
51	0x3c153dd4	0.009108979
52	0xbba6b57e	-0.0050875535
53	0xbbd7f937	-0.006590988
54	0xbc0a3d81	-0.008437515
55	0x3c890277	0.016724808
56	0xbc02b958	-0.00797876
57	0xbccb1034	-0.024788
58	0x3cfafa2c	0.03063687
59	0xbc5c76c8	-0.013456054
60	0x3c9684ba	0.018373836
61	0x3ca9463b	0.020663371
62	0xbd11a874	-0.03556104
63	0xbd01a35a	-0.031649925

decoder_r.upc2.main.1.weight f4 [64]
0	0x3d90813b	0.07055899
1	0x3e3a59a3	0.18198256
2	0xb957c59f	-0.00020577617
3	0x39314a2a	0.00016907664
4	0x3d8cc535	0.06873552
5	0x3b61c8ac	0.0034451885
6	0x3dc0b563	0.09409597
7	0x3d7b3346	0.061328195
8	0x3baa2aca	0.005193089
9	0x3e0b4ac8	0.13602746
10	0x3d6d9b02	0.058009155
11	0x3df0dbc2	0.117606655
12	0x3de25956	0.11052196
13	0x3952bf46	0.00020098416
14	0x348bfb98	2.6073826e-07
15	0x3d62f576	0.05540987
16	0x390050cb	0.00012237129
17	0x38e32270	0.00010830618
18	0x3dc924a4	0.09821442
19	0x3d281173	0.041032266
20	0x3e0beb07	0.13663875
21	0x3d95cabe	0.07314061
22	0x3df3a95e	0.118975386
23	0xbbd388e2	-0.0064555267
24	0x3dd51d7c	0.10406014
25	0x3cbd6943	0.023121482
26	0x3d9f47ac	0.07777342
27	0x3dcfd79c	0.10148546
28	0x3c11e490	0.008904591
29	0x3d272215	0.040803988
30	0x3d868e1e	0.065700755
31	0x3e0990b7	0.1343411
32	0xae9f3295	-7.239468e-11
33	0x3d3c00d6	0.045899235
34	0x3d168aff	0.03675365
35	0x37a1645c	1.923943e-05
36	0xb1cc6ada	-5.949329e-09
37	0x3d1926a7	0.037390377
38	0x8294259b	-2.176823e-37
39	0x87f6693e	-3.7075822e-34
40	0x38feda4a	0.00012152323
41	0x3c316fcd	0.010829878
42	0xbaa0c444	-0.0012265523
43	0xbde8812c	-0.113527626
44	0x3e1479c9	0.14499582
45	0x3d8d00bd	0.068849064
46	0x3df19a46	0.117970034
47	0x3c866059	0.016403364
48	0x3c9fd061	0.019508542
49	0x3e293ca3	0.16527037
50	0x3daa438c	0.08313665
51	0x3dff46c3	0.124646686
52	0x3e732675	0.23745139
53	0x9a4be72e	-4.216616e-23
54	0x3da4f606	0.08054738
55	0xb8a7a955	-7.994721e-05
56	0x3bf2c5d2	0.007408836
57	0x391a4c86	0.00014715092
58	0x3e72fdcc	0.23729628
59	0x3e067583	0.13130765
60	0x3d2445ea	0.040105738
61	0x3e2452a6	0.16047153
62	0x80d70a6f	-1.9748375e-38
63	0x3b93cb89	0.0045103473

decoder_r.upc2.main.1.bias f4 [64]
0	0x3d15bc4f	0.03655654
1	0xbd080df8	-0.033216447
2	0x38c50b72	9.395824e-05
3	0x389190e5	6.9411275e-05
4	0x3a2bbe6d	0.0006551508
5	0xb9353858	-0.00017282495
6	0x3d142edd	0.036177505
7	0xbd18be43	-0.037290823
8	0xbc507c5e	-0.012724964
9	0x3cbc3431	0.022974106
10	0xbd3c4b2c	-0.045970127
11	0xbc871aae	-0.016492214
12	0xbc9a815f	-0.018860517
13	0x37576817	1.2839234e-05
14	0xb1161d32	-2.1844468e-09
15	0xbca03a6e	-0.019559111
16	0x386ec27a	5.6924742e-05
17	0x383b2f43	4.462829e-05
18	0xbc87ca32	-0.016575906
19	0xbc8874e1	-0.016657295
20	0xbda0ea97	-0.078572445
21	0xbcd014f5	-0.025400618
22	0x3b505f07	0.0031794922
23	0xbade08df	-0.00169399
24	0xbc94bb7c	-0.018155806
25	0xbca8d8c0	-0.020611167
26	0xbd183598	-0.037160486
27	0xbc81b143	-0.015831595
28	0xbc2ff64c	-0.010739874
29	0xbcde1d0a	-0.027113456
30	0xbbfb296d	-0.0076648504
31	0xbd165b3a	-0.036708094
32	0xaebe40fe	-8.6517446e-11
33	0xbd22ee86	-0.039778255
34	0xbb66da37	-0.003522528
35	0x3769ee74	1.3943401e-05
36	0xb05df7d2	-8.0751505e-10
37	0x3a691724	0.0008891693
38	0x8183762a	-4.8291357e-38
39	0x85346041	-8.4812384e-36
40	0x38a0b495	7.6630306e-05
41	0xbb24dd5d	-0.0025156357
42	0xbbbed8c0	-0.0058241785
43	0xbd36c1d5	-0.044618446
44	0xbdc35c1e	-0.09539054
45	0xbd4a236d	-0.04935019
46	0x3c7b2fa4	0.015331183
47	0xbd045358	-0.032306045
48	0xbc0c062a	-0.0085463915
49	0xbccd31da	-0.025048185
50	0xbc12b93d	-0.008955297
51	0x3a860e9b	0.0010227741
52	0xbd0924fb	-0.033482533
53	0x9aada2ad	-7.181394e-23
54	0xbd66ced4	-0.05634959
55	0x383b428f	4.464626e-05
56	0xbb9ff559	-0.0048815426
57	0x38cf2787	9.877892e-05
58	0xbbaac49a	-0.005211425
59	0xbc79ddae	-0.015250606
60	0x3c5198d4	0.012792785
61	0x3d3884b9	0.04504845
62	0x80cdd8c7	-1.8904042e-38
63	0x3b90cf59	0.004419249

decoder_D.upc1.main.0.weight f4 [64, 32, 3, 3]
0	0xbc9ccac1	-0.01913965
1	0xbc4408af	-0.011964961
2	0x3c1e3694	0.009656567
3	0xbc73f0e2	-0.014888974
4	0xbc0d3b99	-0.008620166
5	0x3bda132a	0.0066551166
6	0xbc08539e	-0.008320717
7	0x3ae20d70	0.0017246436
8	0xbb0cd294	-0.002148782
9	0xbb484c45	-0.0030563038
10	0xbaff01d1	-0.0019455497
11	0xbb2761a3	-0.0025540374
12	0xbae14afe	-0.0017188487
13	0xbac5b27e	-0.0015083102
14	0xbb11bc2f	-0.002223741
15	0xbb7adfda	-0.0038280399
16	0xbb2f019d	-0.0026703842
17	0xbb58073d	-0.0032963299
18	0x3766bff9	1.3753765e-05
19	0x3707a150	8.0841855e-06
20	0x37376f9d	1.0933637e-05
21	0x3768504f	1.3846976e-05
22	0x3721b7ce	9.639143e-06
23	0x36e9dd72	6.9697207e-06
24	0x364964f4	3.0010096e-06
25	0x369a1b2b	4.5927204e-06
26	0x3589c131	1.0263522e-06
27	0x378a113e	1.6458911e-05
28	0x3710bb59	8.626689e-06
29	0x37541bf5	1.2642694e-05
30	0x378a9c02	1.6523529e-05
31	0x3759a853	1.2973399e-05
32	0x37531c99	1.25832385e-05
33	0x36544c57	3.1634897e-06
34	0x368aa2a3	4.131654e-06
35	0x35aa6ba2	1.2697312e-06
36	0xbc0547de	-0.00813481
37	0xbc50a056	-0.01273354
38	0xbbfe8949	-0.0077678305
39	0xbc2f08e6	-0.010683274
40	0xbba1f9fe	-0.0049431315
41	0xbb9e42e0	-0.0048297495
42	0xbb12433b	-0.0022317905
43	0xbadf1276	-0.0017019052
44	0x3b3ca157	0.002878269
45	0x3ce77376	0.028253298
46	0x3c752994	0.014963526
47	0x3c3ddbe6	0.011588072
48	0x3c3eb1ed	0.0116391005
49	0xbc6dd954	-0.014517147
50	0xbcbcc21a	-0.023041774
51	0x3c1ec45d	0.009690371
52	0xbc3ac9a3	-0.011400613
53	0xbc0ea194	-0.008705515
54	0xbbb1c77c	-0.0054253917
55	0xbb2e431c	-0.0026590293
56	0xbb35a7f9	-0.0027718528
57	0xba3a5f06	-0.00071094965
58	0xbbbd199c	-0.005770875
59	0x3a0391eb	0.0005018997
60	0xbbcd7f5b	-0.0062712855
61	0xbbcdcbc6	-0.006280395
62	0x3a4c261c	0.0007787661
63	0x3ac6b119	0.001515898
64	0x3b2f02ae	0.0026704478
65	0x3b219799	0.002465701
66	0x3b106bf0	0.0022036992
67	0x3ba440cb	0.0050126067
68	0x3b87c6c5	0.004143568
69	0x3b2fb966	0.0026813387
70	0x3b8454f4	0.0040384475
71	0x3bb17c44	0.005416425
72	0x3bd198ff	0.0063964124
73	0x395d3fc4	0.00021099957
74	0xbb318b73	-0.0027091175
75	0xbc36309b	-0.011119987
76	0xbc432fac	-0.011913221
77	0xbcb5513c	-0.022133462
78	0xbb8e735e	-0.004347249
79	0xbbef34b9	-0.007299986
80	0xbc4b8754	-0.012422401
81	0x3bd4c140	0.0064927638
82	0x3bb1b339	0.0054229763
83	0x3c07ae25	0.008281265
84	0x3baabfe4	0.0052108634
85	0x3bf8098e	0.0075694984
86	0x3beae041	0.0071678464
87	0x3bde92ee	0.0067924177
88	0x3bcebb74	0.0063089672
89	0x3c081496	0.008305689
90	0x3bcc54b5	0.006235684
91	0x3cb516f6	0.022105675
92	0xbb8d24d8	-0.0043073706
93	0x3ce46ba9	0.027883368
94	0xbba07071	-0.0048962166
95	0xbc16a3d7	-0.009194336
96	0xbbcc6d35	-0.0062386044
97	0xbc34de7e	-0.011039374
98	0xbc9cb5e9	-0.01912971
99	0x3c8d2e41	0.01723397
100	0x3cb237bb	0.02175509
101	0x3cc6e075	0.024276951
102	0x3c9b618a	0.018967409
103	0x3cc08318	0.02350001
104	0x3ccd91b5	0.025093893
105	0x3ca443eb	0.020051917
106	0x3cc86368	0.024461463
107	0x3cdb7ad4	0.026791967
108	0x38bb0035	8.9168934e-05
109	0x3970c810	0.00022962713
110	0xb9315767	-0.00016912595
111	0x3a679cd6	0.0008835321
112	0x38839831	6.2749146e-05
113	0x3a66d19b	0.00088050374
114	0x3a5c5de1	0.0008406323
115	0x3a43eb87	0.0007473756
116	0x3a413494	0.00073702005
117	0x3729ef5e	1.0128917e-05
118	0x374cfb7b	1.22179e-05
119	0x374b2299	1.2107798e-05
120	0x374826a5	1.1929927e-05
121	0x376cf178	1.41229175e-05
122	0x376bd892	1.4057516e-05
123	0x3746745f	1.1828814e-05
124	0x376bc185	1.4052149e-05
125	0x3769f8c8	1.3945806e-05
126	0x80001159	-6.223e-42
127	0x80001296	-6.667e-42
128	0x800011a5	-6.33e-42
129	0x800011c9	-6.38e-42
130	0x800012ac	-6.698e-42
131	0x800011c5	-6.375e-42
132	0x8000126f	-6.613e-42
133	0x800013c1	-7.086e-42
134	0x8000128a	-6.65e-42
135	0x80000e98	-5.235e-42
136	0x800008e8	-3.195e-42
137	0x800008e8	-3.195e-42
138	0x80000788	-2.702e-42
139	0x800008eb	-3.199e-42
140	0x800008eb	-3.199e-42
141	0x80000788	-2.702e-42
142	0x800008eb	-3.199e-42
143	0x800008eb	-3.199e-42
144	0x3bbd9e8c	0.0057867225
145	0xbb89c316	-0.0042041643
146	0xbb3676ef	-0.0027841886
147	0xbc8859c5	-0.016644368
148	0xbc4f3473	-0.012646782
149	0xbcba6660	-0.022753894
150	0xbb2b97c0	-0.002618298
151	0xbc4e71f5	-0.012600412
152	0xbc9f7dc2	-0.019469146
153	0x3b85303d	0.0040645883
154	0x3c10a695	0.008828779
155	0x3c1f0fc9	0.009708353
156	0x3be404d7	0.0069585848
157	0x3c5577af	0.013029023
158	0x3c371898	0.011175297
159	0x3b75c560	0.0037501678
160	0x3c1c4264	0.009537313
161	0x3c193879	0.009351843
162	0xbba8131b	-0.0051292307
163	0xbb3b03bf	-0.0028536168
164	0x3a450087	0.0007515032
165	0xbb9f7abe	-0.004866927
166	0xbb82ed37	-0.0039955634
167	0xbb71414a	-0.0036812597
168	0xbc131ba5	-0.008978759
169	0xbba120f2	-0.0049172575
170	0xbb3fa949	-0.002924519
171	0xba5ff67c	-0.0008543504
172	0xbc2fab99	-0.010722064
173	0xbb75bc42	-0.0037496244
174	0xbb557682	-0.0032571857
175	0xba869450	-0.0010267589
176	0x3c53b06e	0.012920482
177	0x3c2f5a5d	0.010702697
178	0x3c510c69	0.0127593065
179	0x3c9c1f64	0.019057937
180	0x3c828000	0.015930176
181	0x3b1d15ee	0.002396937
182	0x3c03199a	0.008001709
183	0x3b829d7a	0.003986058
184	0xbb6fdbe8	-0.003659958
185	0xba94684a	-0.0011322584
186	0x3c4adde2	0.012382003
187	0xb9d90738	-0.00041394844
188	0x3ba72987	0.005101386
189	0xbcaac3e9	-0.02084537
190	0xbc933db3	-0.017973756
191	0x3ac74698	0.0015203534
192	0xbcf0ef17	-0.029410882
193	0x3c515452	0.012776451
194	0x3cab7ed2	0.020934496
195	0x3b6c4fc8	0.0036058296
196	0x3bcb00df	0.006195172
197	0x3cbb251b	0.022844842
198	0xbbf21c9f	-0.007388666
199	0x3a037160	0.00050141476
200	0xbb18cdc9	-0.0023316017
201	0xbb2ec6ad	-0.0026668713
202	0x3b37ad45	0.002802686
203	0x3b3f4119	0.0029183088
204	0xbb81ee56	-0.0039651794
205	0x3b99e575	0.004696543
206	0x3adc665b	0.0016815172
207	0x3bfcbf17	0.0077132094
208	0x3af83738	0.0018937355
209	0x3bf66555	0.007519404
210	0xbbe873c6	-0.0070938794
211	0x3c27cdb2	0.010241913
212	0xbc0a2d81	-0.008433701
213	0xbaacdccf	-0.0013188365
214	0xbc4013e4	-0.011723492
215	0xbb5965a8	-0.0033172164
216	0x3b9deca1	0.004819468
217	0xbb39229a	-0.0028249384
218	0xbc0c0667	-0.008546448
219	0x3bf8bcfc	0.007590888
220	0xbd0a95db	-0.03383432
221	0xbc5cd67f	-0.013478874
222	0x3c33c067	0.010971165
223	0xbc3df366	-0.011593675
224	0xbca119ef	-0.019665686
225	0x3bd32662	0.0064437846
226	0xb9b0fa20	-0.00033755694
227	0x3b0a28f1	0.0021081532
228	0xbab2c684	-0.0013639485
229	0x3b5e3045	0.0033903283
230	0x3ad81dfa	0.0016488426
231	0x3b8c3a66	0.0042794226
232	0x3ac509a2	0.0015032778
233	0x3a7f1b73	0.0009731568
234	0x3c139120	0.009006768
235	0x3bbe381b	0.005805028
236	0x3bf596f0	0.0074948
237	0x3bd046e6	0.006356108
238	0x3b6979f5	0.003562567
239	0x3a51c088	0.00080014067
240	0x3bc1ed2b	0.005918165
241	0xbb6e6233	-0.003637445
242	0xbb2c2206	-0.0026265397
243	0x3b9615a6	0.0045802174
244	0xbbd2f0d3	-0.0064374
245	0x3bf1433e	0.007362752
246	0xbb67ea87	-0.0035387592
247	0x3b3fb168	0.002925003
248	0x3bf33fa1	0.0074233566
249	0x3b9c9d3e	0.004779487
250	0xba9974db	-0.0011707799
251	0x3c24315d	0.010021535
252	0xbd143d93	-0.036191534
253	0xbd307202	-0.043077476
254	0xbc459caf	-0.012061282
255	0xbd124743	-0.03571249

decoder_D.upc1.main.0.bias f4 [32]
0	0xbab41c87	-0.0013741412
1	0xbb8b5c37	-0.004252936
2	0x3c09f338	0.008419804
3	0x3bb034da	0.005377394
4	0xbd544cbd	-0.051830996
5	0x3ca14b20	0.019689143
6	0xbbf37456	-0.00742964
7	0xbc4a6f8b	-0.0123556955
8	0x3d171b78	0.03689143
9	0x3bf9d55f	0.007624313
10	0x3c661bd9	0.014044725
11	0xbd188187	-0.037232902
12	0x3c3d80fd	0.011566398
13	0xbc959993	-0.018261706
14	0x0000036b	1.226e-42
15	0x80001dbb	-1.0665e-41
16	0x3c8a654b	0.016894003
17	0x3a90b2ec	0.0011039651
18	0xbbb2658e	-0.005444235
19	0x3bb46032	0.0055046314
20	0x3bd320f5	0.006443138
21	0x3b0d55d9	0.0021566062
22	0xbca4d1dd	-0.020119602
23	0xbc56005f	-0.013061612
24	0xb9d841ac	-0.0004124766
25	0xbb3fe3a3	-0.002927997
26	0xbbbd20e3	-0.0057717427
27	0xbbb22d86	-0.0054375557
28	0xbbe753fa	-0.0070595713
29	0xbcea2b00	-0.028584957
30	0x3c5efe35	0.013610412
31	0xbc3f58f9	-0.011678928

decoder_D.upc1.main.1.weight f4 [32]
0	0x3d9f3070	0.077729106
1	0xb8c71163	-9.492298e-05
2	0xbac596b2	-0.0015074818
3	0x3b11bbb6	0.0022237129
4	0x3ec1a07f	0.3781776
5	0x3e3126c3	0.17299943
6	0x3dc9bb7e	0.098502144
7	0x39c7d048	0.0003811142
8	0x3e1aa57e	0.15102193
9	0x3bb1a4e2	0.005421267
10	0x3e84365a	0.25822717
11	0xb8989f9e	-7.277656e-05
12	0x3d23b8f1	0.039971296
13	0x02311707	1.3010515e-37
14	0x80001a5e	-9.459e-42
15	0x80001ba8	-9.921e-42
16	0x3dc54dc9	0.09633977
17	0xb981da67	-0.0002476752
18	0x391f3a06	0.00015185037
19	0x3d97cbe3	0.07411935
20	0xbb2c76cb	-0.0026315923
21	0x3e0497f5	0.12948592
22	0x3c5fd12a	0.013660708
23	0x3dfeaffe	0.124359116
24	0x3e18f529	0.14937271
25	0x392eb629	0.00016661793
26	0x3dda13ce	0.10648309
27	0x3dc646c4	0.09681466
28	0x3deb4860	0.11488414
29	0x3cb89b06	0.022534858
30	0x3e90b9d9	0.2826679
31	0xb98c504a	-0.000267627

decoder_D.upc1.main.1.bias f4 [32]
0	0x3c6f9713	0.014623421
1	0x3685a0d5	3.982432e-06
2	0xbc0f5ae7	-0.0087497
3	0x3acff343	0.0015865344
4	0xbcbde743	-0.023181563
5	0xbc1f594d	-0.009725881
6	0xbd1e42e8	-0.038638026
7	0x396ca971	0.00022569836
8	0xbc5ffbe9	-0.0136709
9	0xba128e42	-0.0005590656
10	0xbc61abdc	-0.013773885
11	0xba458df2	-0.0007536105
12	0xbd28604f	-0.041107472
13	0x80d88538	-1.9884257e-38
14	0x389b7220	7.4122334e-05
15	0x8030fa17	-4.497819e-39
16	0xbc9c19b8	-0.019055232
17	0x38847171	6.3153806e-05
18	0x37b80b30	2.1939719e-05
19	0x3bd4d19b	0.0064947135
20	0x3a3902e0	0.00070576183
21	0xbd5578ce	-0.05211716
22	0xbbc30b7f	-0.005952298
23	0xbc45b2f4	-0.0120665915
24	0xbd403970	-0.046929777
25	0x38aa0e33	8.1088765e-05
26	0xbd4141f0	-0.047182024
27	0x3b78465d	0.0037883737
28	0x3cf4d6bc	0.02988755
29	0xbc9c6a9c	-0.019093804
30	0xbd49c4bf	-0.049259897
31	0xb618545f	-2.2698875e-06

decoder_D.upc2.main.0.weight f4 [32, 32, 3, 3]
0	0x3c545c79	0.0129615
1	0x3c56680e	0.013086332
2	0x3afbd9d1	0.0019214695
3	0x3c6c68dd	0.014429298
4	0x3be60c51	0.007020511
5	0xbaf0fda7	-0.0018386141
6	0xba0bcd63	-0.0005333034
7	0xbb0d8c24	-0.0021598423
8	0xbc60c69b	-0.013719226
9	0x3b24ec63	0.0025165312
10	0x3a99f2e0	0.0011745356
11	0x3b078526	0.0020678728
12	0x3a060413	0.00051123014
13	0x3a41cb34	0.00073926453
14	0x39e0d3c6	0.00042882393
15	0x3a40bf68	0.00073527405
16	0xba1ecd0e	-0.0006057777
17	0x39fcc052	0.00048208475
18	0x3a86f5a2	0.0010296593
19	0xbb8251b1	-0.0039770235
20	0xbc52feec	-0.012878161
21	0x3b3637f8	0.0027804356
22	0xbb81362f	-0.0039432268
23	0xbc964f30	-0.018348306
24	0xbbc72565	-0.006077456
25	0xbc8c5de8	-0.017134622
26	0xbcd7e66d	-0.026354993
27	0xba3c78ea	-0.00071896485
28	0xba0db9e2	-0.0005406422
29	0xba90e988	-0.0011055926
30	0xbab4a607	-0.001378239
31	0xbaa7587c	-0.0012767459
32	0xbaecff6a	-0.001808149
33	0xbb0afd02	-0.0021207933
34	0xbacd26ad	-0.0015651785
35	0xbb1972a9	-0.002341429
36	0x3bf5d9c2	0.0075027654
37	0xbaabbd4f	-0.0013102683
38	0xb9ae80f6	-0.0003328395
39	0x3c205837	0.009786657
40	0x3bdbadc8	0.006704066
41	0xbbf80d94	-0.007569978
42	0x3b95e76c	0.004574707
43	0xbc077187	-0.008266813
44	0xbc5990ea	-0.013279179
45	0x3a79d2c0	0.00095300004
46	0xb92a7e51	-0.0001625952
47	0xb90d476a	-0.00013473412
48	0xba5008f0	-0.0007935902
49	0xbae6f645	-0.0017621001
50	0xbadbbdfa	-0.0016764991
51	0xba381d6b	-0.00070234266
52	0xbadb0ea2	-0.0016712735
53	0xbacc7fce	-0.0015602054
54	0x3b2be82b	0.0026230912
55	0x3b0de4a7	0.002165118
56	0x3ae5a388	0.001752005
57	0x3a7abe00	0.00095650554
58	0x394c12d3	0.00019461969
59	0x3838a4c7	4.402248e-05
60	0x398d05fa	0.0002689807
61	0x368900c1	4.083006e-06
62	0xba0c92f8	-0.0005362476
63	0xbadc152c	-0.0016790978
64	0xbbd0604f	-0.006359137
65	0xbbbe97d0	-0.0058164373
66	0x3a326f4a	0.00068067445
67	0xbc4204ca	-0.011841962
68	0xbc5f2db6	-0.013621738
69	0xbbf35f1a	-0.0074271085
70	0xbc9f4d27	-0.019445969
71	0xbca84f7b	-0.020545712
72	0xbb30cb72	-0.0026976732
73	0xbb5c125b	-0.0033580277
74	0xbb294d38	-0.002583338
75	0xbb923648	-0.0044620372
76	0xbba485d6	-0.0050208373
77	0xbb8e0126	-0.004333633
78	0xbb1122fa	-0.0022146092
79	0xbb1c0f8d	-0.002381298
80	0xbafd4d9e	-0.00193255
81	0xbbfee023	-0.007778184
82	0x3b3d4662	0.0028881063
83	0xbc16e8ab	-0.009210746
84	0x3bfe73a4	0.0077652503
85	0x3c85eae1	0.01634735
86	0xbc291941	-0.010320962
87	0xbc4723e0	-0.012154549
88	0xbc95fcb5	-0.018308977
89	0xbceed7af	-0.02915558
90	0x3b7efdaa	0.003890852
91	0xbb7599b0	-0.0037475638
92	0xbc7513a2	-0.014958294
93	0x3b7f6031	0.0038967247
94	0xbba91537	-0.0051599997
95	0xbcb1c52a	-0.02170046
96	0xbbf6111f	-0.007509365
97	0xbcaa90ad	-0.02082094
98	0xbcfa2f75	-0.030540207
99	0xba868c2f	-0.0010265167
100	0xba542d01	-0.00080938643
101	0xbab8a0af	-0.0014085973
102	0xbae9ba9d	-0.0017832104
103	0xbad2a729	-0.0016071546
104	0xbb0f4d53	-0.0021866157
105	0xbb25a42d	-0.0025274858
106	0xbb06222c	-0.0020467145
107	0xbb3521b2	-0.0027638492
108	0x3b8c6b49	0.0042852503
109	0x3b596bed	0.00331759
110	0x3b22501d	0.002476699
111	0x3af1012e	0.0018387192
112	0x3a732e7d	0.00092766416
113	0x39d5d19c	0.00040782697
114	0x3ac0e1ad	0.0014715694
115	0x39f3804a	0.00046444155
116	0xb966d5ae	-0.00022014111
117	0x3c55eb8e	0.013056649
118	0x3c18b7bf	0.009321152
119	0x3ad81838	0.001648671
120	0x3cb0a82b	0.021564564
121	0x3c833b90	0.016019613
122	0xbbe0e310	-0.0068630055
123	0x3a7a81e9	0.0009556101
124	0xbbc62a69	-0.006047536
125	0xbca37a26	-0.019955706
126	0x3c8bd7db	0.017070701
127	0x3b621aec	0.003450091
128	0x3a7bc009	0.00096035056
129	0x3c1b52de	0.009480206
130	0xbbd75df7	-0.006572481
131	0xbc9ac2bf	-0.01889169
132	0x3bf94d5d	0.0076080994
133	0xbc621435	-0.013798763
134	0xbc934435	-0.01797686
135	0x3bd09909	0.0063658995
136	0x3ba346e3	0.0049828156
137	0x3b947a5d	0.0045311884
138	0x3b64b3f7	0.0034897306
139	0x3b328085	0.0027237248
140	0x3b6836c1	0.0035433026
141	0x3b9806ee	0.004639498
142	0x3b288649	0.0025714806
143	0x3b44e7f8	0.003004549
144	0x3bb5594d	0.005534327
145	0x3b332ffd	0.0027341836
146	0xb9ff4bb0	-0.00048693782
147	0x3bf7304f	0.0075436006
148	0x3bda5be6	0.006663787
149	0xbb97bb2e	-0.004630468
150	0x3bd638ba	0.006537524
151	0x3868467d	5.5378758e-05
152	0xbba7943f	-0.005114108
153	0x3a3f2cf0	0.0007292768
154	0x3995f6aa	0.00028603274
155	0xb99ca1e4	-0.00029875257
156	0x37450db0	1.1745302e-05
157	0xba063cc1	-0.00051207474
158	0xba5f8e75	-0.00085280027
159	0xb9fc0ce0	-0.00048074778
160	0xba69b6da	-0.00089154916
161	0xbab4740e	-0.0013767497
162	0x3a920e31	0.0011143145
163	0x398521e1	0.0002539298
164	0x3b39cfa0	0.0028352514
165	0x399425a9	0.0002825682
166	0xbb4454f8	-0.0029957872
167	0xbb0fdde0	-0.0021952316
168	0x3a24cb77	0.0006286422
169	0xbbbf27a1	-0.0058335816
170	0xbb8589ad	-0.00407525
171	0x3820bde0	3.8323808e-05
172	0xb9996762	-0.0002925946
173	0xb9b68955	-0.00034816065
174	0xb960ae9f	-0.00021427356
175	0xba033198	-0.00050046435
176	0xba16e72d	-0.0005756494
177	0xb972f756	-0.00023171058
178	0xba12411e	-0.0005579161
179	0xba1fe9ce	-0.0006100208
180	0x3a65ae6b	0.0008761647
181	0x3c514758	0.012773357
182	0x3c5354ad	0.012898606
183	0xbb9d5a0c	-0.004801994
184	0x3c0140f1	0.007889018
185	0x3c7b84b2	0.015351461
186	0x3afc843d	0.0019265484
187	0x3c2e501a	0.010639215
188	0x3c712672	0.014718639
189	0x3b16f585	0.0023034525
190	0x3b8119b8	0.0039398335
191	0xbb0acb5b	-0.0021178338
192	0x3bc19f21	0.005908862
193	0x3b09bee0	0.0021018311
194	0xbbbc2b8d	-0.0057424963
195	0x3a7fe87c	0.0009762121
196	0xbb519cc9	-0.003198432
197	0xbc45a1d2	-0.012062507
198	0x3c25075c	0.010072555
199	0x3bba5228	0.0056860633
200	0x3979c348	0.00023819238
201	0x3c9a82ee	0.01886126
202	0x3c05514e	0.00813706
203	0xbabb23ae	-0.0014277601
204	0x3be62e02	0.0070245275
205	0x3b0c93f1	0.0021450485
206	0xbb47ad5b	-0.0030468318
207	0x3b87f689	0.0041492623
208	0x3b200b18	0.0024420675
209	0x3b2a92af	0.0026027372
210	0x3a9610fb	0.0011449152
211	0x37f2b9e0	2.8935203e-05
212	0x38d8bef3	0.0001033525
213	0x3ad4fd66	0.0016249835
214	0x39394243	0.00017667659
215	0x39bfcf2d	0.00036584717
216	0x3b5cd50f	0.0033696329
217	0x3b3584d7	0.0027697587
218	0x3aa63425	0.0012680335
219	0x3b0e01aa	0.0021668472
220	0x3aa1084c	0.0012285798
221	0x39daf869	0.0004176528
222	0x3a68c2a3	0.0008879101
223	0x3a066a30	0.00051275175
224	0xba703214	-0.00091627357
225	0x3a963b48	0.0011461759
226	0xbc04d35b	-0.008107032
227	0xbc30d629	-0.010793247
228	0x3c0fc259	0.008774363
229	0xbbc3180c	-0.0059537943
230	0xbc6932ff	-0.01423335
231	0xb8ab4779	-8.167228e-05
232	0xbc6683e9	-0.014069536
233	0xbc98be46	-0.018645417
234	0xb9686aa4	-0.00022164971
235	0xb8d9fcd3	-0.000103944585
236	0xb9881a8b	-0.00025959717
237	0xb9cf1ea8	-0.00039504957
238	0xb95e5e33	-0.00021206662
239	0xb9d8cc06	-0.0004135074
240	0xba0037d8	-0.0004891134
241	0xb98ab93e	-0.00026459427
242	0xb9fcbb85	-0.00048204898
243	0xbc3cc3d6	-0.0115213
244	0xbc70daf4	-0.01470064
245	0xbc10d5ed	-0.008840066
246	0xbb2ae161	-0.0026074278
247	0xbbc052f3	-0.0058692633
248	0xbae8efe3	-0.0017771687
249	0x3ae20f0a	0.0017246914
250	0xbae1c714	-0.0017225468
251	0x3b5e131a	0.0033885897
252	0x3b47d140	0.0030489713
253	0x3ae8f36d	0.0017772742
254	0x3af7ebaf	0.0018914844
255	0x3a964f53	0.0011467732

decoder_D.upc2.main.0.bias f4 [32]
0	0x3c554a06	0.013018137
1	0xbcbfeaf6	-0.023427468
2	0x3b47cc40	0.0030486733
3	0xbbb63922	-0.00556101
4	0x3c31caa2	0.010851534
5	0xbc315ebb	-0.010825808
6	0xbd2c0b2d	-0.042002846
7	0xbbad1da3	-0.005283074
8	0xbc29d139	-0.010364824
9	0xbbe7ab56	-0.0070699854
10	0x3c06876e	0.008211
11	0xbaa590ec	-0.0012631691
12	0xbce8d2e6	-0.028420877
13	0x3bf451fa	0.0074560614
14	0x3d29cbe7	0.041454222
15	0xbd224a87	-0.039621856
16	0x3c5e60d4	0.01357289
17	0xbc649c79	-0.013953322
18	0x3b64cbc6	0.0034911497
19	0x3aa714f6	0.0012747336
20	0xbc8314a4	-0.016001053
21	0x3c5bac45	0.0134077715
22	0x3cc63df4	0.024199463
23	0xbcfbb8b0	-0.030727714
24	0xbced32f8	-0.028954968
25	0x3d20145b	0.039081912
26	0xbbd34995	-0.0064479806
27	0x3a9de6e7	0.0012046964
28	0xbd1e9b80	-0.038722515
29	0x3ba3bebe	0.0049971035
30	0xbc4e9233	-0.012608099
31	0xbc728fca	-0.01480479

decoder_D.upc2.main.1.weight f4 [32]
0	0x3f18668a	0.5953146
1	0x80001989	-9.16e-42
2	0x3f04dbf6	0.51898134
3	0x00000fa5	5.612e-42
4	0x3ed33cfa	0.4125746
5	0x8000187e	-8.786e-42
6	0x80000bdb	-4.253e-42
7	0x3f1d8f71	0.61547
8	0x00001ead	1.1004e-41
9	0x3f14e928	0.5816827
10	0x3f2ac17b	0.6670148
11	0x80001594	-7.741e-42
12	0x0000092a	3.287e-42
13	0x3edc4d0d	0.43027535
14	0x3f1749ba	0.5909687
15	0x00002047	1.1579e-41
16	0x3e5e8e71	0.21734025
17	0x00001376	6.981e-42
18	0x3e027df9	0.12743367
19	0x80000499	-1.65e-42
20	0x3eb9f2a2	0.36317927
21	0x3e89a0c4	0.26880467
22	0x3f075778	0.5286784
23	0x800020df	-1.1792e-41
24	0x800004b9	-1.694e-42
25	0x3ec50d54	0.3848673
26	0x800017c1	-8.521e-42
27	0x3e54d26b	0.20783393
28	0x000005ed	2.126e-42
29	0x3eceeb5e	0.40413946
30	0x3f17e3d8	0.59332037
31	0x0000037a	1.247e-42

decoder_D.upc2.main.1.bias f4 [32]
0	0x3eac5574	0.33658946
1	0x00001d9e	1.0625e-41
2	0x3e7d7e5f	0.24755238
3	0x000008f6	3.215e-42
4	0x3e93c958	0.2886455
5	0x00000c48	4.406e-42
6	0x00001b96	9.896e-42
7	0x3ea689f9	0.3252714
8	0x00000258	8.41e-43
9	0x3e962590	0.29325533
10	0x3eb8ecbc	0.36118114
11	0x00003f81	2.2781e-41
12	0x80000e22	-5.07e-42
13	0x3e9791d0	0.29603434
14	0x3e9edfb7	0.31030056
15	0x8000205e	-1.1611e-41
16	0x3e341857	0.1758741
17	0x8000219e	-1.206e-41
18	0x3dcc4590	0.099742055
19	0x00001419	7.21e-42
20	0x3d194c24	0.03742613
21	0x3e552dd4	0.20818263
22	0x3e91b1c5	0.2845594
23	0x00001eda	1.1067e-41
24	0x00000528	1.85e-42
25	0x3e72f3f9	0.2372588
26	0x800010a9	-5.977e-42
27	0x3d86c1fb	0.065799676
28	0x80000e9b	-5.24e-42
29	0x3e960520	0.29300785
30	0x3ea2c712	0.31792504
31	0x00001f0a	1.1135e-41
