Logs/ckpt/last_encoder.pth (torch, 416983 bytes, 20 tensors)

encoder_E.c1.main.0.weight f4 [32, 1, 3, 3]
0	0x00000b9b	4.163e-42
1	0x80000087	-1.89e-43
2	0x80000a73	-3.748e-42
3	0x8000169d	-8.112e-42
4	0x8000131e	-6.858e-42
5	0x00001852	8.724e-42
6	0x00000d76	4.829e-42
7	0x800005ff	-2.151e-42
8	0x80001c82	-1.0227e-41
9	0x00000f30	5.448e-42
10	0x0000160f	7.913e-42
11	0x000006f4	2.494e-42
12	0x00000907	3.238e-42
13	0x0000149d	7.395e-42
14	0x000002a9	9.54e-43
15	0x8000048f	-1.635e-42
16	0x00000079	1.7e-43
17	0x800007c7	-2.79e-42
18	0xbae1dac0	-0.001723133
19	0x3c79cd01	0.015246631
20	0x39af27c8	0.0003340824
21	0xbc7c794c	-0.015409779
22	0x3b492a4b	0.0030695375
23	0xbcb3fd47	-0.021971358
24	0xbc73ad4f	-0.014872863
25	0xbce688a6	-0.02814133
26	0xbc09f78e	-0.008420838
27	0xbd8401c1	-0.06445647
28	0xbe7b386b	-0.2453324
29	0x3e34cf8f	0.17657302
30	0x3e448986	0.19193086
31	0x3c99901f	0.01874548
32	0x3e517911	0.2045634
33	0xbe539469	-0.20662083
34	0x3e69e18f	0.2283995
35	0xbe26c5e7	-0.16286431
36	0x000006ac	2.393e-42
37	0x00000487	1.624e-42
38	0x00000923	3.278e-42
39	0x000009f9	3.578e-42
40	0x00000934	3.301e-42
41	0x00000ded	4.996e-42
42	0x00000a96	3.798e-42
43	0x000009d0	3.52e-42
44	0x00000ece	5.311e-42
45	0x800002fc	-1.07e-42
46	0x00001953	9.085e-42
47	0x80000b22	-3.994e-42
48	0x00000140	4.48e-43
49	0x000001ca	6.42e-43
50	0x80000597	-2.005e-42
51	0x00001956	9.089e-42
52	0x0000224a	1.23e-41
53	0x80001c43	-1.0138e-41
54	0x3e07bf2c	0.1325652
55	0x3e0bcc2b	0.13652103
56	0xbcf97cfd	-0.030455107
57	0x3dfc2ba9	0.12313015
58	0xbe5c1440	-0.214921
59	0x3da28690	0.07935822
60	0x3d011e2a	0.031522907
61	0xbe04e785	-0.12978943
62	0xbe42c53e	-0.19020554
63	0x3e45922a	0.19294038
64	0x3d0bc741	0.03412557
65	0x3e33515e	0.17511508
66	0x3c10f7c5	0.008848135
67	0xbda5456b	-0.08069881
68	0x3cb44cda	0.022009302
69	0xbd9f7b7f	-0.07787227
70	0x3cbcd62d	0.023051346
71	0x3cd88f5d	0.026435548
72	0x00001d05	1.041e-41
73	0x00000b93	4.152e-42
74	0x0000123c	6.541e-42
75	0x80001921	-9.015e-42
76	0x00001d52	1.0518e-41
77	0x00001650	8.004e-42
78	0x8000215d	-1.1968e-41
79	0x000020b3	1.173e-41
80	0x00001123	6.147e-42
81	0x00000fe0	5.695e-42
82	0x000019b3	9.219e-42
83	0x00000f7c	5.555e-42
84	0x00000029	5.7e-44
85	0x80000394	-1.284e-42
86	0x80000f38	-5.46e-42
87	0x00001690	8.094e-42
88	0x80001bb4	-9.938e-42
89	0x00001f80	1.13e-41
90	0x3b27fe03	0.002563358
91	0xbd4c574d	-0.049887944
92	0xbd20554b	-0.03914384
93	0xbd022a7d	-0.0317788
94	0xbd9ab00d	-0.0755311
95	0xbd952fd5	-0.07284514
96	0xbd462245	-0.048372526
97	0xbd6af004	-0.057357803
98	0xbd9d1378	-0.07669729
99	0x3e1c1018	0.15240514
100	0x3e01247f	0.12611578
101	0xbe2fb2bf	-0.1715803
102	0x3da67588	0.08127886
103	0xbd36fc88	-0.044674426
104	0xbdb3b918	-0.08775538
105	0x3dc8dad9	0.09807367
106	0x3df1d1e6	0.11807613
107	0x3c8da63b	0.017291179
108	0x3e1c03a4	0.15235764
109	0xbdd565c8	-0.10419804
110	0xbcc9a52d	-0.024614895
111	0x3d81eb29	0.06343681
112	0xbd148a8d	-0.036264945
113	0xbd024161	-0.03180063
114	0x3bfdbb07	0.0077432427
115	0x3e05c9fd	0.13065334
116	0x3d54d871	0.051964227
117	0xbb4ae552	-0.003095944
118	0xbb645c16	-0.0034844927
119	0xbb873942	-0.0041266987
120	0xbbb2ef84	-0.0054606814
121	0xbb88d721	-0.004176036
122	0xbb998815	-0.0046854117
123	0xbba06d73	-0.00489586
124	0xbbbf8db3	-0.0058457493
125	0xbc08a5aa	-0.008340279
126	0x800005b0	-2.04e-42
127	0x00000337	1.153e-42
128	0x00000153	4.75e-43
129	0x800009b0	-3.475e-42
130	0x000001ab	5.98e-43
131	0x000002d7	1.019e-42
132	0x8000120e	-6.477e-42
133	0x80000351	-1.19e-42
134	0x8000020a	-7.31e-43
135	0x80001de7	-1.0727e-41
136	0x80001bdd	-9.995e-42
137	0x80001d56	-1.0524e-41
138	0x80001ed0	-1.1053e-41
139	0x80001c3b	-1.0127e-41
140	0x80001dae	-1.0647e-41
141	0x80001fe1	-1.1436e-41
142	0x80001d89	-1.0595e-41
143	0x80001f88	-1.1311e-41
144	0x800005cc	-2.08e-42
145	0x80000835	-2.944e-42
146	0x8000063c	-2.236e-42
147	0x8000050e	-1.813e-42
148	0x80000711	-2.535e-42
149	0x800004e0	-1.749e-42
150	0x80000363	-1.215e-42
151	0x800004ec	-1.766e-42
152	0x800003e1	-1.391e-42
153	0x000005da	2.099e-42
154	0x80000f19	-5.416e-42
155	0x80001921	-9.015e-42
156	0x000015eb	7.863e-42
157	0x80000b11	-3.97e-42
158	0x80001484	-7.36e-42
159	0x00001fb0	1.1367e-41
160	0x000008f4	3.212e-42
161	0x80000127	-4.13e-43
162	0xbd1178b6	-0.03551551
163	0x3bd3614b	0.006450807
164	0xbc4f3ea2	-0.01264921
165	0xbd035437	-0.032062735
166	0xbcfb3194	-0.03066329
167	0x3c926aa8	0.017873123
168	0x3d2fc728	0.04291454
169	0xbd7c0c23	-0.061535012
170	0xbd76132d	-0.06007688
171	0xbd3559c2	-0.044275053
172	0xbbd905c9	-0.006623004
173	0x3ce48b72	0.027898524
174	0x3bb0a6d0	0.0053909793
175	0x3d72767e	0.059195034
176	0xbc320527	-0.010865486
177	0xbd3fed3d	-0.046857107
178	0x3d56249c	0.052281007
179	0x3d2073f1	0.03917307
180	0x000008d2	3.164e-42
181	0x0000034b	1.181e-42
182	0x00000536	1.87e-42
183	0x0000192c	9.03e-42
184	0x8000137b	-6.988e-42
185	0x8000114c	-6.205e-42
186	0x00000f20	5.426e-42
187	0x800021fc	-1.2191e-41
188	0x800002fb	-1.069e-42
189	0x00001de1	1.0719e-41
190	0x80001b4d	-9.794e-42
191	0x000003a8	1.312e-42
192	0x000011b9	6.358e-42
193	0x80001880	-8.789e-42
194	0x80000fde	-5.692e-42
195	0x800011d4	-6.396e-42
196	0x00000036	7.6e-44
197	0x80000551	-1.907e-42
198	0xb9351aaa	-0.00017271438
199	0x38cf41a3	9.882755e-05
200	0x3a9f9586	0.0012175299
201	0x3ad845b9	0.0016500271
202	0x3aff43de	0.0019475182
203	0x3b4cb184	0.0031233737
204	0x3b212d68	0.0024593715
205	0x3b3960d0	0.0028286465
206	0x3b846e09	0.0040414375
207	0x3b8e1e14	0.0043370817
208	0xbc4aa230	-0.01236777
209	0xbc2159b9	-0.009848052
210	0xbc64050e	-0.013917221
211	0xbc36fd8f	-0.0111688515
212	0xbcc4c60b	-0.024020215
213	0xbbf2c9c5	-0.0074093067
214	0xbc663860	-0.014051527
215	0xbcf98ef7	-0.030463679
216	0x0000198c	9.164e-42
217	0x000003e3	1.394e-42
218	0x8000172a	-8.31e-42
219	0x0000162b	7.952e-42
220	0x00000393	1.282e-42
221	0x800015fc	-7.887e-42
222	0x00001d72	1.0563e-41
223	0x80001404	-7.18e-42
224	0x000006a7	2.386e-42
225	0x80001dd4	-1.07e-41
226	0x80001ae3	-9.645e-42
227	0x80001df0	-1.074e-41
228	0x80001ff0	-1.1457e-41
229	0x80001cb1	-1.0293e-41
230	0x80001fe4	-1.144e-41
231	0x800021dd	-1.2148e-41
232	0x80001ec9	-1.1044e-41
233	0x800021e2	-1.2155e-41
234	0xbd251af1	-0.040308896
235	0xbc506a3b	-0.01272064
236	0xbcc5d09d	-0.024147326
237	0xbd20c0d5	-0.0392464
238	0x3cc345c1	0.023836972
239	0x3c919a1d	0.017773682
240	0xbd1c1c6e	-0.03811305
241	0x3cac741f	0.021051465
242	0x3c593eb8	0.013259582
243	0x3c091a78	0.008368127
244	0x3c5215a2	0.0128225405
245	0x3c54e786	0.012994653
246	0x3c47400b	0.012161265
247	0x3c689c3d	0.014197406
248	0x3c61b0e0	0.01377508
249	0x3c763358	0.01502689
250	0x3c82d251	0.015969427
251	0x3c7b313b	0.015331562
252	0x00000353	1.193e-42
253	0x800007a7	-2.745e-42
254	0x80001bef	-1.002e-41
255	0x800019b0	-9.215e-42

encoder_E.c1.main.0.bias f4 [32]
0	0x17835d80	8.489279e-25
1	0x3a52b6e8	0.00080381194
2	0x3dd8e631	0.105907805
3	0xbd8138ce	-0.06309663
4	0x0000113c	6.183e-42
5	0x800011a3	-6.327e-42
6	0xbe3366b8	-0.17519653
7	0xbe94732f	-0.28994128
8	0x0000162f	7.958e-42
9	0x800016e4	-8.212e-42
10	0x3dc5a607	0.09650808
11	0xbdc662f0	-0.096868396
12	0xbe26e819	-0.16299476
13	0x3d71be87	0.05901959
14	0x80001425	-7.226e-42
15	0x80000d97	-4.875e-42
16	0x80000741	-2.602e-42
17	0x000002d4	1.015e-42
18	0x3b2be469	0.0026228672
19	0x3c94d74c	0.018169068
20	0x800017f3	-8.591e-42
21	0x80001b7c	-9.86e-42
22	0xbabcc4c2	-0.00144019
23	0x3c19723e	0.009365616
24	0x80000c20	-4.35e-42
25	0x00000c06	4.313e-42
26	0x3c04b512	0.008099811
27	0xbd1d8277	-0.0384545
28	0x00001e8d	1.096e-41
29	0x80001eba	-1.1023e-41
30	0x1a2e7540	3.607707e-23
31	0x9ae3232c	-9.394182e-23

encoder_E.c1.main.1.weight f4 [32]
0	0x8000bfb8	-6.8776e-41
1	0x80043d62	-3.89362e-40
2	0x802f2866	-4.33076e-39
3	0x3e7839ba	0.24240771
4	0x00000805	2.877e-42
5	0x00001f93	1.1327e-41
6	0x3ec1ad61	0.3782759
7	0x3e009e6e	0.12560436
8	0x800016ca	-8.175e-42
9	0x80000498	-1.648e-42
10	0x3e2d49bb	0.16922657
11	0x3e8d3abc	0.27583873
12	0x3df93204	0.12167743
13	0x00395806	5.2662e-39
14	0x80001d9c	-1.0622e-41
15	0x80001fe1	-1.1436e-41
16	0x00001dca	1.0686e-41
17	0x80000f52	-5.496e-42
18	0xb8a29295	-7.752065e-05
19	0x3e6ce373	0.2313364
20	0x80001870	-8.767e-42
21	0x8000087b	-3.042e-42
22	0xb91e297a	-0.00015083505
23	0x3dc94ae2	0.09828736
24	0x0000220c	1.2214e-41
25	0x0000039e	1.298e-42
26	0x3e147081	0.14496042
27	0x8020cb28	-3.011615e-39
28	0x00001193	6.304e-42
29	0x80001522	-7.581e-42
30	0x00000836	2.946e-42
31	0x22078d03	1.8370563e-18

encoder_E.c1.main.1.bias f4 [32]
0	0x80014adb	-1.18689e-40
1	0x8008b44f	-7.99367e-40
2	0x001d4534	2.688055e-39
3	0x3a4d5787	0.0007833172
4	0x80432fce	-6.170127e-39
5	0x80139b32	-1.800548e-39
6	0x3c6fab10	0.014628187
7	0xbaa4709e	-0.001254577
8	0x801fb3f5	-2.911457e-39
9	0x8004d992	-4.45392e-40
10	0xbd2a1720	-0.04152596
11	0x3baeefdb	0.0053386516
12	0xbb9e779f	-0.0048360373
13	0x005529f2	7.821064e-39
14	0x00343e44	4.797782e-39
15	0x80043187	-3.85109e-40
16	0x0029d014	3.8399e-39
17	0x37e23424	2.696558e-05
18	0xb876f95b	-5.88832e-05
19	0xba24ee1d	-0.0006291585
20	0x801e16f4	-2.763299e-39
21	0x0025a5ae	3.457348e-39
22	0x3775b180	1.4644465e-05
23	0xbbc04bdb	-0.0058684177
24	0x8004584a	-3.99014e-40
25	0x002fd294	4.39181e-39
26	0xbce49737	-0.027904136
27	0x80c109e3	-1.7727797e-38
28	0x8007f6b4	-7.31349e-40
29	0x80249c99	-3.362255e-39
30	0x804544ec	-6.361374e-39
31	0xa2a9b889	-4.6002926e-18

encoder_E.c2.main.0.weight f4 [32, 32, 3, 3]
0	0x00007e80	4.538e-41
1	0x00002c41	1.5875e-41
2	0x0000806f	4.6073e-41
3	0x00002671	1.379e-41
4	0x800035b4	-1.9265e-41
5	0x00002d1c	1.6182e-41
6	0x00006c29	3.88e-41
7	0x0000149c	7.393e-42
8	0x0000716e	4.0691e-41
9	0x80003946	-2.0546e-41
10	0x8000a584	-5.9376e-41
11	0x80002473	-1.3076e-41
12	0x80007dab	-4.5081e-41
13	0x8000ece2	-8.4978e-41
14	0x80006340	-3.5604e-41
15	0x80001d21	-1.045e-41
16	0x800089ab	-4.9386e-41
17	0x80000389	-1.268e-42
18	0x0003739a	3.16977e-40
19	0x00070e1b	6.47909e-40
20	0x00086194	7.69688e-40
21	0x00029c5a	2.3976e-40
22	0x0007c136	7.1216e-40
23	0x0009b79b	8.92385e-40
24	0x80015d7d	-1.25373e-40
25	0x0002d212	2.5903e-40
26	0x000489f9	4.16837e-40
27	0xbb293cc6	-0.0025823577
28	0x3c2f1f3c	0.010688599
29	0x3c3ba415	0.011452694
30	0x3cee7cc5	0.02911223
31	0x3d60e1cd	0.05490284
32	0x3cb78fd1	0.022407444
33	0x3d09f35a	0.033679344
34	0x3d133fd5	0.035949547
35	0xb91fc01b	-0.00015234986
36	0x8010cf1b	-1.543663e-39
37	0x8015804b	-1.974568e-39
38	0x800f6ce7	-1.416599e-39
39	0x80100077	-1.469535e-39
40	0x80152e5b	-1.945175e-39
41	0x801001b8	-1.469985e-39
42	0x800fa05b	-1.435057e-39
43	0x801526d0	-1.942469e-39
44	0x800ff5fe	-1.465778e-39
45	0x000549f0	4.85701e-40
46	0x00067548	5.93086e-40
47	0x000508c1	4.62318e-40
48	0x00063d03	5.729e-40
49	0x00076156	6.77766e-40
50	0x0005edff	5.44554e-40
51	0x00067daa	5.96093e-40
52	0x0007b002	7.05988e-40
53	0x000633ee	5.69642e-40
54	0x3c859e93	0.016310966
55	0x3ba8cb4e	0.005151189
56	0xbb1b9893	-0.0023742064
57	0xbc91985d	-0.017772848
58	0xbcc3a3f2	-0.023881886
59	0xbb3202b6	-0.002716226
60	0xbc96d017	-0.018409772
61	0x3bd0e6b5	0.0063751587
62	0xbb51c477	-0.0032007971
63	0xbb1104da	-0.0022128136
64	0xbcca05a9	-0.024660902
65	0xbc88cc7c	-0.016699068
66	0xbb2c64ef	-0.0026305278
67	0x3b99d466	0.0046945093
68	0xbbd68b6a	-0.006547381
69	0x3bf4c9b4	0.007470334
70	0x3d082968	0.033242613
71	0x3c279e65	0.010230635
72	0x80019a0b	-1.47096e-40
73	0x80014430	-1.16297e-40
74	0x80012daf	-1.08224e-40
75	0x80023c47	-2.05294e-40
76	0x800203c9	-1.85029e-40
77	0x8001efca	-1.77856e-40
78	0x8001f2e8	-1.78974e-40
79	0x8001ad86	-1.54084e-40
80	0x8001a4e2	-1.50984e-40
81	0x0000d909	7.7858e-41
82	0x00008eb8	5.1198e-41
83	0x0000365d	1.9502e-41
84	0x00015623	1.22736e-40
85	0x00010001	9.1837e-41
86	0x0000bb6d	6.7236e-41
87	0x0001a7ce	1.52032e-40
88	0x00015c15	1.24868e-40
89	0x0001049b	9.3488e-41
90	0x3aabc773	0.0013105705
91	0xbb863fe7	-0.004096973
92	0x3b774dfd	0.0037735694
93	0xbbb9e20c	-0.005672699
94	0xbc610ae7	-0.0137355095
95	0xbb128c60	-0.0022361502
96	0xbc000655	-0.00781401
97	0xbbc6d269	-0.0060675633
98	0x3c34104d	0.0109902145
99	0xbb0bdf34	-0.0021342756
100	0xbc82c438	-0.015962705
101	0xbacf384f	-0.0015809628
102	0xbcc0b79c	-0.023525052
103	0x3caaf701	0.020869734
104	0x3d00e44d	0.031467725
105	0xbc43b9d7	-0.011946163
106	0x3cf909d0	0.030400187
107	0x3d25309b	0.040329557
108	0xbb1decba	-0.00240974
109	0x3b7550f7	0.0037432292
110	0xba5d19e0	-0.00084343366
111	0x3c10207e	0.008796809
112	0x3cb43fec	0.022003137
113	0x3ce30825	0.027713845
114	0xbb5aa4e6	-0.0033362447
115	0x3c76bc02	0.015059473
116	0x3caaa6c5	0.020831475
117	0x800bc829	-1.081994e-39
118	0x80077f28	-6.88464e-40
119	0x8009523a	-8.56017e-40
120	0x800a3c5a	-9.40005e-40
121	0x8005ea4d	-5.43229e-40
122	0x80082a6f	-7.49906e-40
123	0x800a8759	-9.66909e-40
124	0x80064293	-5.74895e-40
125	0x80087ed8	-7.80187e-40
126	0x800242a0	-2.07572e-40
127	0x0000ba28	6.678e-41
128	0x80003987	-2.0637e-41
129	0x80025789	-2.15073e-40
130	0x00008d46	5.068e-41
131	0x80007767	-4.2833e-41
132	0x800282bb	-2.30568e-40
133	0x00006bac	3.8625e-41
134	0x8000a890	-6.0469e-41
135	0x0002b893	2.49884e-40
136	0x000240bc	2.06893e-40
137	0x0002a73b	2.43662e-40
138	0x000231a8	2.01484e-40
139	0x0001a54f	1.51137e-40
140	0x000223ac	1.96468e-40
141	0x000222d0	1.9616e-40
142	0x0001a4bf	1.50935e-40
143	0x00021b0c	1.93374e-40
144	0x000075d3	4.2267e-41
145	0x0002e726	2.66591e-40
146	0x0001af63	1.54752e-40
147	0x0000a087	5.7586e-41
148	0x00030275	2.76388e-40
149	0x0001c88b	1.63777e-40
150	0x00006242	3.5248e-41
151	0x0002d682	2.60622e-40
152	0x00018e5c	1.42904e-40
153	0xb631c37a	-2.6488838e-06
154	0xb6810115	-3.8446256e-06
155	0xb5ecb3e5	-1.7635726e-06
156	0xb68dded3	-4.2280676e-06
157	0xb6bbbf5b	-5.595311e-06
158	0xb67dfea1	-3.7848151e-06
159	0xb6abf3a7	-5.124562e-06
160	0xb6da6c96	-6.5095473e-06
161	0xb69b108f	-4.6212876e-06
162	0x37f04e92	2.8646817e-05
163	0x37b564cd	2.162382e-05
164	0x37449d23	1.1719097e-05
165	0x37de4f1f	2.6501306e-05
166	0x37d84b07	2.5784144e-05
167	0x378c10f9	1.6697204e-05
168	0x37816575	1.5425243e-05
169	0x379645e6	1.7913942e-05
170	0x36d10dac	6.230277e-06
171	0x3c8c6315	0.01713709
172	0xbcd7261f	-0.026263295
173	0x3ca381f3	0.019959426
174	0xbc74a4cd	-0.01493187
175	0x3d078560	0.03308618
176	0xbbd9a6df	-0.006642207
177	0x3cd45ef3	0.025924182
178	0xbc099546	-0.008397406
179	0xbc8c2405	-0.01710702
180	0x00005f12	3.4105e-41
181	0x80002e5c	-1.663e-41
182	0x000002c2	9.9e-43
183	0x0000a17f	5.7934e-41
184	0x800008fb	-3.222e-42
185	0x0000311c	1.7617e-41
186	0x0000eba6	8.4535e-41
187	0x000047c1	2.574e-41
188	0x00006f2a	3.9878e-41
189	0x8000ccd2	-7.3476e-41
190	0x0001515c	1.21022e-40
191	0x00007ee8	4.5525e-41
192	0x8000a341	-5.8564e-41
193	0x000165a0	1.28292e-40
194	0x000086f9	4.8419e-41
195	0x80009533	-5.3523e-41
196	0x000182de	1.38782e-40
197	0x00009672	5.397e-41
198	0x3546a6e2	7.4003594e-07
199	0x35f5501a	1.8277235e-06
200	0x3691323b	4.3271843e-06
201	0x3591cfd0	1.0863823e-06
202	0x3593e8b4	1.1020079e-06
203	0x365b5782	3.268448e-06
204	0x361bd979	2.3223386e-06
205	0x36342e85	2.6849168e-06
206	0x36a37df7	4.872443e-06
207	0x3c03b2c6	0.008038228
208	0x3ba6dc98	0.005092215
209	0x3c0e7287	0.008694298
210	0x3bb2ef45	0.005460652
211	0xba6a0a23	-0.0008927902
212	0x3b94c49f	0.0045400406
213	0x3b953d36	0.004554416
214	0x3b56839d	0.0032732256
215	0x3c37f5dc	0.011228051
216	0x8000265c	-1.3761e-41
217	0x8000c421	-7.0358e-41
218	0x80001b5d	-9.816e-42
219	0x8000a01c	-5.7436e-41
220	0x800141e6	-1.15475e-40
221	0x80009434	-5.3165e-41
222	0x80001d3c	-1.0487e-41
223	0x8000ba5a	-6.685e-41
224	0x80000f66	-5.524e-42
225	0x80015877	-1.23571e-40
226	0x00015210	1.21274e-40
227	0x0000e98f	8.3785e-41
228	0x80019dbd	-1.48421e-40
229	0x0000efb8	8.5995e-41
230	0x00006861	3.7444e-41
231	0x8001998b	-1.46916e-40
232	0x0000fed7	9.142e-41
233	0x00007170	4.0694e-41
234	0x3c9d38e4	0.019192167
235	0xbca4b50b	-0.02010586
236	0xb8c98f72	-9.611146e-05
237	0xbbb17bf3	-0.005416387
238	0x3c9f4157	0.019440336
239	0x3c8ffdcc	0.017577074
240	0xbc74035e	-0.014893381
241	0xbb36fa04	-0.0027920017
242	0xbbc1c952	-0.005913892
243	0x801a7728	-2.430468e-39
244	0x80051364	-4.66134e-40
245	0x000c0439	1.103541e-39
246	0x802f5099	-4.345181e-39
247	0x800d6eaa	-1.23356e-39
248	0x0014b653	1.902116e-39
249	0x806c50d5	-9.94723e-39
250	0x80543517	-7.733227e-39
251	0x80336c56	-4.722474e-39
252	0x0000ec94	8.4868e-41
253	0x000098e0	5.4841e-41
254	0x0000764c	4.2437e-41
255	0x00016c94	1.30786e-40

encoder_E.c2.main.0.bias f4 [32]
0	0xbcdf5228	-0.027260855
1	0xbcdcc862	-0.026951019
2	0x8000037e	-1.253e-42
3	0x000001e7	6.82e-43
4	0x3c5ca380	0.013466716
5	0x3c11a201	0.008888722
6	0xbbe8147c	-0.00708252
7	0x3c1ad1f3	0.00944947
8	0x00002014	1.1507e-41
9	0x000001d5	6.57e-43
10	0xbc08408b	-0.0083161695
11	0x3c4d098a	0.012514481
12	0x3b9a733f	0.0047134454
13	0xbb9b2afb	-0.0047353483
14	0x00000f76	5.546e-42
15	0x80000f7a	-5.552e-42
16	0xb9e3d63e	-0.00043456437
17	0x3b15d0e4	0.0022860104
18	0xbb398fd2	-0.0028314483
19	0x3b198f44	0.002343134
20	0x800006bd	-2.417e-42
21	0x000006bf	2.42e-42
22	0x3a83e13f	0.0010061635
23	0xbbb98a52	-0.005662241
24	0xbba70c9c	-0.0050979387
25	0xbd053cd6	-0.03252872
26	0x3a34e5c5	0.00069006934
27	0xba2ba836	-0.00065481977
28	0xbc3e0da2	-0.01159993
29	0x3c4d5e53	0.012534696
30	0x000022b7	1.2453e-41
31	0x80000762	-2.648e-42

encoder_E.c2.main.1.weight f4 [32]
0	0x3e4bd95d	0.19907136
1	0x3e0b8284	0.13624007
2	0x0000161a	7.929e-42
3	0x00001d67	1.0548e-41
4	0x3d74a7ce	0.059730344
5	0x3de2747f	0.11057376
6	0x3d584a01	0.05280495
7	0x3d7cd01e	0.061721914
8	0x00001a95	9.536e-42
9	0x80001998	-9.181e-42
10	0x3da26816	0.07930009
11	0xb8c0ce89	-9.1937436e-05
12	0xaae455be	-4.0560432e-13
13	0x3d85aee1	0.06527496
14	0x00002091	1.1683e-41
15	0x800015c6	-7.811e-42
16	0x3da0f4b5	0.07859174
17	0x3dba3458	0.09092015
18	0x3d278234	0.040895656
19	0x3cb2030d	0.02172997
20	0x80000d76	-4.829e-42
21	0x80000885	-3.056e-42
22	0x3d08762a	0.033315815
23	0x3dadc418	0.084846675
24	0x3e38be91	0.18041445
25	0x3e9c90af	0.30579135
26	0x3d7db6b9	0.061941836
27	0xb902d0b7	-0.00012475518
28	0x3c832f81	0.016013863
29	0x3e1b7294	0.15180427
30	0x80000884	-3.055e-42
31	0x8000038e	-1.275e-42

encoder_E.c2.main.1.bias f4 [32]
0	0xbc276dfd	-0.010219094
1	0xbd8341f3	-0.06409063
2	0x8a419a14	-9.321591e-33
3	0x8a17e332	-7.313116e-33
4	0xbb09557e	-0.0020955498
5	0xbd1e3aa5	-0.038630147
6	0xbc91a2f8	-0.017777905
7	0xbcb52bda	-0.022115637
8	0x89073b46	-1.6277904e-33
9	0x08cfa3c4	1.249686e-33
10	0xbc6ca78a	-0.014444241
11	0x379b9965	1.854887e-05
12	0xa9ac804f	-7.6605924e-14
13	0xbcf01d3f	-0.02931082
14	0x89586f1f	-2.6052303e-33
15	0x8a9c7923	-1.506782e-32
16	0xbc8a68b9	-0.016895639
17	0xbd02c077	-0.03192183
18	0xbc05a1e6	-0.008156275
19	0xbbf9bad3	-0.007621148
20	0x0865da4a	6.916878e-34
21	0x886054fe	-6.7507456e-34
22	0xbc13f895	-0.009031435
23	0xbcd78cb1	-0.026312204
24	0xbba5f4f6	-0.005064602
25	0xbd2a2824	-0.041542187
26	0xbc9c1ffe	-0.019058224
27	0x3819b4a9	3.6646295e-05
28	0xbc05b060	-0.008159727
29	0xbcb019fa	-0.021496762
30	0x89ba2c0d	-4.4819296e-33
31	0x88f50ad0	-1.4747943e-33

encoder_E.c3.main.0.weight f4 [64, 32, 3, 3]
0	0x000002a9	9.54e-43
1	0x0000025d	8.48e-43
2	0x000002e1	1.033e-42
3	0x000005ca	2.077e-42
4	0x000005cf	2.084e-42
5	0x000005ac	2.035e-42
6	0x00000343	1.17e-42
7	0x000002f7	1.064e-42
8	0x000002e4	1.037e-42
9	0x8000174d	-8.359e-42
10	0x80001713	-8.277e-42
11	0x800015ec	-7.864e-42
12	0x80001789	-8.443e-42
13	0x80001787	-8.44e-42
14	0x8000165c	-8.021e-42
15	0x800015f4	-7.875e-42
16	0x800015d0	-7.825e-42
17	0x8000161d	-7.933e-42
18	0x80001043	-5.834e-42
19	0x80000df2	-5.003e-42
20	0x80000ea8	-5.258e-42
21	0x80000d0f	-4.685e-42
22	0x80000a82	-3.77e-42
23	0x80000a63	-3.726e-42
24	0x80000c8a	-4.498e-42
25	0x800009b3	-3.48e-42
26	0x80000977	-3.395e-42
27	0x80000b0d	-3.964e-42
28	0x8000091d	-3.269e-42
29	0x8000091a	-3.265e-42
30	0x80000923	-3.278e-42
31	0x80000721	-2.557e-42
32	0x80000713	-2.538e-42
33	0x80000a0c	-3.604e-42
34	0x80000729	-2.569e-42
35	0x8000080c	-2.887e-42
36	0x800015e2	-7.85e-42
37	0x80001a37	-9.404e-42
38	0x80001915	-8.998e-42
39	0x8000158d	-7.731e-42
40	0x800019b9	-9.228e-42
41	0x80001915	-8.998e-42
42	0x80000b80	-4.125e-42
43	0x80001180	-6.278e-42
44	0x80001081	-5.92e-42
45	0x80000fa0	-5.605e-42
46	0x80001068	-5.885e-42
47	0x80001079	-5.909e-42
48	0x80001083	-5.923e-42
49	0x8000109c	-5.958e-42
50	0x8000109d	-5.96e-42
51	0x80000f4b	-5.486e-42
52	0x8000100e	-5.76e-42
53	0x80000f77	-5.548e-42
54	0x00001d62	1.054e-41
55	0x00001971	9.127e-42
56	0x00001d38	1.0482e-41
57	0x00001efe	1.1118e-41
58	0x0000186f	8.765e-42
59	0x00001f63	1.126e-41
60	0x00001f6a	1.1269e-41
61	0x000016ca	8.175e-42
62	0x00001f48	1.1222e-41
63	0x80001a17	-9.359e-42
64	0x80001adb	-9.634e-42
65	0x8000188a	-8.803e-42
66	0x80001635	-7.966e-42
67	0x8000151c	-7.573e-42
68	0x800012ea	-6.785e-42
69	0x80000793	-2.717e-42
70	0x80000846	-2.968e-42
71	0x800003cb	-1.36e-42
72	0x800006b1	-2.4e-42
73	0x000013d5	7.114e-42
74	0x00001267	6.602e-42
75	0x00000ffc	5.734e-42
76	0x00001bc3	9.959e-42
77	0x8000116f	-6.254e-42
78	0x00001682	8.074e-42
79	0x0000170f	8.272e-42
80	0x00001c9e	1.0266e-41
81	0x800006ac	-2.393e-42
82	0x000014fe	7.53e-42
83	0x80001685	-8.078e-42
84	0x00000421	1.481e-42
85	0x80000b3b	-4.029e-42
86	0x80000f44	-5.476e-42
87	0x0000194c	9.075e-42
88	0x800010de	-6.051e-42
89	0x00000292	9.22e-43
90	0x8000072d	-2.574e-42
91	0x8000072a	-2.57e-42
92	0x80000a03	-3.592e-42
93	0x80000bb7	-4.202e-42
94	0x80000b57	-4.068e-42
95	0x80000e5f	-5.155e-42
96	0x800006db	-2.459e-42
97	0x80000712	-2.536e-42
98	0x800009fe	-3.585e-42
99	0x0000012c	4.2e-43
100	0x00001d2f	1.0469e-41
101	0x0000172b	8.311e-42
102	0x0000068e	2.351e-42
103	0x000002d5	1.016e-42
104	0x800015c9	-7.815e-42
105	0x00001c97	1.0256e-41
106	0x0000228b	1.2392e-41
107	0x00001ff8	1.1468e-41
108	0x0000036f	1.232e-42
109	0x00000636	2.228e-42
110	0x000004b4	1.687e-42
111	0x000005e2	2.11e-42
112	0x00000856	2.99e-42
113	0x000007a9	2.748e-42
114	0x00000602	2.155e-42
115	0x0000087e	3.046e-42
116	0x000007e2	2.828e-42
117	0x8000007e	-1.77e-43
118	0x00000111	3.83e-43
119	0x00000112	3.84e-43
120	0x0000001c	3.9e-44
121	0x0000013e	4.46e-43
122	0x00000106	3.67e-43
123	0x000000ae	2.44e-43
124	0x0000025b	8.45e-43
125	0x00000237	7.95e-43
126	0x00001811	8.633e-42
127	0x00001120	6.143e-42
128	0x00000dff	5.021e-42
129	0x00001167	6.243e-42
130	0x00000a3c	3.671e-42
131	0x00000799	2.726e-42
132	0x00000de8	4.989e-42
133	0x0000058d	1.991e-42
134	0x00000504	1.799e-42
135	0x00000270	8.74e-43
136	0x800020f9	-1.1828e-41
137	0x80000257	-8.4e-43
138	0x80000318	-1.11e-42
139	0x80000955	-3.348e-42
140	0x000011c5	6.375e-42
141	0x000011d8	6.401e-42
142	0x80001eec	-1.1093e-41
143	0x000007c7	2.79e-42
144	0x00001bf3	1.0026e-41
145	0x00000cc2	4.577e-42
146	0x00000359	1.201e-42
147	0x00000b67	4.09e-42
148	0x00000e2a	5.081e-42
149	0x00000508	1.805e-42
150	0x00001620	7.937e-42
151	0x00001d16	1.0434e-41
152	0x000021b0	1.2085e-41
153	0x800013ad	-7.058e-42
154	0x00000d0a	4.678e-42
155	0x80000e72	-5.182e-42
156	0x0000113d	6.184e-42
157	0x800004bc	-1.698e-42
158	0x80001634	-7.965e-42
159	0x800018f7	-8.956e-42
160	0x0000022e	7.82e-43
161	0x8000145e	-7.306e-42
162	0x8000153e	-7.62e-42
163	0x80001395	-7.025e-42
164	0x80001874	-8.772e-42
165	0x00002274	1.236e-41
166	0x00002241	1.2288e-41
167	0x00002275	1.2361e-41
168	0x0000067a	2.323e-42
169	0x0000074d	2.619e-42
170	0x00000694	2.36e-42
171	0x800014d7	-7.476e-42
172	0x80000469	-1.582e-42
173	0x80000f34	-5.454e-42
174	0x000018b3	8.86e-42
175	0x00001d8b	1.0598e-41
176	0x00001a0b	9.342e-42
177	0x800015a8	-7.769e-42
178	0x80000116	-3.9e-43
179	0x800013de	-7.127e-42
180	0x8000158d	-7.731e-42
181	0x8000132f	-6.882e-42
182	0x8000131b	-6.854e-42
183	0x80001357	-6.938e-42
184	0x80001113	-6.125e-42
185	0x800011b8	-6.356e-42
186	0x80001392	-7.02e-42
187	0x80001163	-6.237e-42
188	0x80001204	-6.463e-42
189	0x000011a6	6.331e-42
190	0x00000c1b	4.343e-42
191	0x000010ec	6.07e-42
192	0x00000e7c	5.196e-42
193	0x00000266	8.6e-43
194	0x00000e41	5.113e-42
195	0x00000e4d	5.13e-42
196	0x000003aa	1.314e-42
197	0x00000feb	5.71e-42
198	0x8000009a	-2.16e-43
199	0x80000209	-7.3e-43
200	0x000005a3	2.022e-42
201	0x800000ef	-3.35e-43
202	0x800001e9	-6.85e-43
203	0x00000591	1.997e-42
204	0x000001df	6.71e-43
205	0x00000075	1.64e-43
206	0x00000afc	3.94e-42
207	0x00001e9b	1.0979e-41
208	0x00002158	1.1961e-41
209	0x000017e6	8.573e-42
210	0x00002117	1.187e-41
211	0x00001a8a	9.52e-42
212	0x0000143e	7.262e-42
213	0x000016bc	8.156e-42
214	0x00001fcf	1.1411e-41
215	0x00001c0b	1.006e-41
216	0x00000355	1.195e-42
217	0x00000569	1.941e-42
218	0x0000019c	5.77e-43
219	0x00000402	1.438e-42
220	0x000004e4	1.754e-42
221	0x000002f2	1.057e-42
222	0x00000067	1.44e-43
223	0x00000240	8.07e-43
224	0x800001dc	-6.67e-43
225	0x8000007f	-1.78e-43
226	0x000001b4	6.11e-43
227	0x00000382	1.258e-42
228	0x00000197	5.7e-43
229	0x000004e5	1.756e-42
230	0x000005cb	2.078e-42
231	0x00000336	1.152e-42
232	0x00000653	2.269e-42
233	0x00000742	2.604e-42
234	0x80000b6f	-4.102e-42
235	0x00000e35	5.097e-42
236	0x00002171	1.1997e-41
237	0x00001b4b	9.791e-42
238	0x000020cd	1.1767e-41
239	0x000015e0	7.847e-42
240	0x00000e4b	5.127e-42
241	0x00001c3b	1.0127e-41
242	0x00001c1c	1.0084e-41
243	0x00000066	1.43e-43
244	0x0000028a	9.11e-43
245	0x0000004c	1.06e-43
246	0x00000095	2.09e-43
247	0x000001e8	6.84e-43
248	0x0000015b	4.86e-43
249	0x000001c4	6.33e-43
250	0x00000400	1.435e-42
251	0x0000034b	1.181e-42
252	0x00002239	1.2277e-41
253	0x80002030	-1.1547e-41
254	0x0000158e	7.732e-42
255	0x800018d0	-8.901e-42

encoder_E.c3.main.0.bias f4 [64]
0	0x00001507	7.543e-42
1	0x800011d5	-6.397e-42
2	0x80001dd9	-1.0707e-41
3	0x0000093e	3.315e-42
4	0x3b3e7927	0.0029063912
5	0xbc0f053f	-0.008729278
6	0x3b38458f	0.0028117632
7	0x3b57ca25	0.0032926884
8	0xbd25c881	-0.04047442
9	0x3c944b67	0.01810236
10	0x3c27bf91	0.010238544
11	0x3c0edb67	0.008719302
12	0x800006e6	-2.475e-42
13	0x00000f3d	5.466e-42
14	0x00001fb1	1.1369e-41
15	0x800000e0	-3.14e-43
16	0xb596052b	-1.1177375e-06
17	0xb3bb3606	-8.717693e-08
18	0xb3bb3478	-8.71741e-08
19	0xb3bb38c5	-8.7181924e-08
20	0xbb7cef11	-0.0038594643
21	0xbc420599	-0.011842155
22	0xbc14f111	-0.009090678
23	0x3b9c6a2a	0.004773398
24	0xbc610687	-0.013734466
25	0xbadfa3b3	-0.0017062336
26	0xbb06a1c9	-0.0020543209
27	0xbb2c0770	-0.002624955
28	0xbb121d42	-0.002229527
29	0x3add69e5	0.0016892521
30	0xbb5a66c6	-0.0033325418
31	0xbc14eea7	-0.009090102
32	0x3a9adb24	0.0011814577
33	0x38855cac	6.359196e-05
34	0x3a9f4310	0.0012150723
35	0x3aaed520	0.0013338663
36	0x3b14f7c6	0.0022730692
37	0x3b13be6c	0.002254392
38	0x3b708d6e	0.0036705392
39	0x3af81a10	0.0018928666
40	0xbb33a327	-0.0027410479
41	0xbc0cc9b9	-0.008593016
42	0x3b2165cc	0.0024627326
43	0x3b272bd5	0.0025508304
44	0x3c8e6879	0.0173838
45	0x3c5beca6	0.013423121
46	0x3b37cbdf	0.00280451
47	0x3b82d592	0.0039927447
48	0x80000b7c	-4.12e-42
49	0x80000e46	-5.12e-42
50	0x80001e74	-1.0925e-41
51	0x00000bbf	4.214e-42
52	0xbc79a12f	-0.015236183
53	0xbc43b699	-0.01194539
54	0x3c6a1816	0.014287969
55	0xbc1702b6	-0.009216955
56	0x800012d1	-6.75e-42
57	0x00002123	1.1887e-41
58	0x00001d3e	1.049e-41
59	0x00000c03	4.309e-42
60	0x3b227007	0.0024786012
61	0x3c1d650c	0.009606611
62	0xbbfb9850	-0.007678069
63	0x3bc9817f	0.0061494703

encoder_E.c3.main.1.weight f4 [64]
0	0x80000d74	-4.826e-42
1	0x800020c4	-1.1754e-41
2	0x80001c56	-1.0165e-41
3	0x80000776	-2.676e-42
4	0x0000174a	8.355e-42
5	0x3cb556e5	0.022136161
6	0x00000bd8	4.249e-42
7	0x00000522	1.841e-42
8	0x801b6add	-2.517894e-39
9	0x3e5e99e5	0.21738394
10	0x3e5b6ae6	0.21427497
11	0x800251eb	-2.13058e-40
12	0x000013e0	7.13e-42
13	0x000014c4	7.45e-42
14	0x8000223b	-1.228e-41
15	0x000021fa	1.2188e-41
16	0x355a14d0	8.1241615e-07
17	0x800020e7	-1.1803e-41
18	0x00001dcb	1.0688e-41
19	0x8000031c	-1.115e-42
20	0x3dd78f6b	0.10525402
21	0x03b4ae08	1.0619405e-36
22	0x2800ac8f	7.142845e-15
23	0x3e2448e7	0.16043435
24	0x3dc2e3a7	0.095160775
25	0x221995d3	2.0814683e-18
26	0x8a68ed90	-1.1215074e-32
27	0x80022767	-1.97806e-40
28	0x0213fe63	1.087286e-37
29	0x3af0bc14	0.0018366599
30	0x800a41e3	-9.4199e-40
31	0x3d288921	0.0411464
32	0x0000255d	1.3403e-41
33	0x3d80ec33	0.062950514
34	0x000029fa	1.5058e-41
35	0x0000250e	1.3293e-41
36	0x0d175e91	4.6644298e-31
37	0x3d2b8ef4	0.041884378
38	0x90071783	-2.6642168e-29
39	0x3904ea03	0.00012675677
40	0x3dca3c14	0.0987474
41	0x3d939b08	0.07207304
42	0x0224e4aa	1.211444e-37
43	0x8c13197f	-1.133214e-31
44	0x3da7ee2b	0.08199724
45	0x3c77e86d	0.015131098
46	0xb8d2c223	-0.00010049741
47	0xb862f740	-5.411287e-05
48	0x800010c9	-6.021e-42
49	0x00000c0a	4.319e-42
50	0x800008f5	-3.213e-42
51	0x0000187b	8.782e-42
52	0xa66b8dfd	-8.1724433e-16
53	0x80015459	-1.22094e-40
54	0x3d9eb6c5	0.07749704
55	0x8000fceb	-9.073e-41
56	0x8000039c	-1.295e-42
57	0x0000205c	1.1608e-41
58	0x00000419	1.47e-42
59	0x80001aa1	-9.553e-42
60	0xb3b8d539	-8.606953e-08
61	0x3da06623	0.07831981
62	0x3cef0838	0.029178724
63	0xa9927715	-6.50436e-14

encoder_E.c3.main.1.bias f4 [64]
0	0x80084e23	-7.62714e-40
1	0x80087805	-7.77739e-40
2	0x80088ad1	-7.84482e-40
3	0x800840e8	-7.57968e-40
4	0x80089c6e	-7.908e-40
5	0xbceab871	-0.028652402
6	0x80082ebc	-7.51449e-40
7	0x800885e1	-7.8271e-40
8	0x0001c588	1.62696e-40
9	0x3d2e53f7	0.042560544
10	0xbd2109e6	-0.03931608
11	0x800942eb	-8.50525e-40
12	0x8008753d	-7.76741e-40
13	0x8008bd2e	-8.02549e-40
14	0x80089a15	-7.89958e-40
15	0x8008675e	-7.71765e-40
16	0x39bc8ee0	0.00035964604
17	0x8008597a	-7.66782e-40
18	0x8008b64a	-8.00077e-40
19	0x8008b18a	-7.98373e-40
20	0xbd4293fc	-0.04750441
21	0x8152bde8	-3.870716e-38
22	0x2764d07e	3.175438e-15
23	0xba1d1c9a	-0.00059933367
24	0xbc39cfd1	-0.011341051
25	0x210fe76b	4.8756564e-19
26	0x88a6b859	-1.00341015e-33
27	0x800741a6	-6.66399e-40
28	0x00c03c38	1.7654018e-38
29	0xba256e0a	-0.00063106476
30	0x800a3540	-9.37457e-40
31	0xbc60a8a4	-0.013712082
32	0x800874fa	-7.76647e-40
33	0xbbee4170	-0.0072709844
34	0x800862a9	-7.70077e-40
35	0x80087c4c	-7.79273e-40
36	0x0ad5eb4b	2.0599661e-32
37	0xbc6719cc	-0.014105272
38	0x8ebed231	-4.7041023e-30
39	0x37b1580e	2.1141048e-05
40	0xbc61504e	-0.013752056
41	0xbd12bfe0	-0.035827518
42	0x0124a0a5	3.02373e-38
43	0x89e39a4b	-5.479336e-33
44	0x3c285b0d	0.010275614
45	0xbc5446ad	-0.012956304
46	0x37b2873d	2.1282229e-05
47	0x3767fa2a	1.3826919e-05
48	0x8008a9e5	-7.9563e-40
49	0x800884cf	-7.82327e-40
50	0x80088c0e	-7.84926e-40
51	0x8008883d	-7.83557e-40
52	0xa61b97c8	-5.398213e-16
53	0x8009677e	-8.63645e-40
54	0x3c54f401	0.012997628
55	0x80087d7c	-7.79699e-40
56	0x8008787e	-7.77908e-40
57	0x8008aadd	-7.95978e-40
58	0x80088daf	-7.8551e-40
59	0x8008684d	-7.721e-40
60	0xb2a73722	-1.946643e-08
61	0xbb4151da	-0.002949825
62	0xbc6bfb5f	-0.014403193
63	0xa7bed8e7	-5.297076e-15

encoder_r.c1.main.0.weight f4 [64, 64, 3, 3]
0	0x00007963	4.3545e-41
1	0x00009506	5.346e-41
2	0x000082a8	4.687e-41
3	0x00008aba	4.9766e-41
4	0x0000a65a	5.9676e-41
5	0x000094c9	5.3374e-41
6	0x00007300	4.1254e-41
7	0x00008fb9	5.1558e-41
8	0x00007ca4	4.4713e-41
9	0x00007933	4.3478e-41
10	0x0000965a	5.3936e-41
11	0x00008304	4.7e-41
12	0x00008aaa	4.9743e-41
13	0x0000a6bf	5.9817e-41
14	0x00009558	5.3574e-41
15	0x0000735f	4.1387e-41
16	0x00008fcc	5.1585e-41
17	0x00007d5d	4.4972e-41
18	0x00007875	4.3212e-41
19	0x0000951b	5.3489e-41
20	0x000082db	4.6942e-41
21	0x000089c5	4.9422e-41
22	0x0000a67a	5.972e-41
23	0x0000955a	5.3577e-41
24	0x00007352	4.1369e-41
25	0x00008f30	5.1366e-41
26	0x00007f31	4.5628e-41
27	0x0000788e	4.3247e-41
28	0x00009564	5.3591e-41
29	0x0000826c	4.6787e-41
30	0x00008abc	4.9769e-41
31	0x0000a783	6.0092e-41
32	0x00009569	5.3598e-41
33	0x000072e5	4.1216e-41
34	0x00008f60	5.1433e-41
35	0x00007d34	4.4914e-41
36	0x000077a8	4.2925e-41
37	0x0000942f	5.3158e-41
38	0x00008171	4.6435e-41
39	0x00008a3d	4.959e-41
40	0x0000a5d5	5.949e-41
41	0x000093ec	5.3064e-41
42	0x00007321	4.13e-41
43	0x00008ec8	5.122e-41
44	0x00007df5	4.5185e-41
45	0x39b7319c	0.00034941442
46	0x39920f87	0.0002785886
47	0x39a5a3ce	0.00031593296
48	0x3983d1d5	0.00025142604
49	0x3939bda6	0.00017713624
50	0x396b6e1b	0.00022452364
51	0x3988e0e9	0.00026107513
52	0x3952c8d1	0.0002010197
53	0x3987c205	0.00025893762
54	0x000078c7	4.3327e-41
55	0x000092f8	5.2722e-41
56	0x0000822c	4.6697e-41
57	0x00008a15	4.9534e-41
58	0x0000a5d8	5.9494e-41
59	0x00009418	5.3126e-41
60	0x00007259	4.102e-41
61	0x00008fa2	5.1526e-41
62	0x00007c17	4.4515e-41
63	0x00007bbf	4.4392e-41
64	0x000097d9	5.4473e-41
65	0x000084a3	4.7581e-41
66	0x00008c99	5.0437e-41
67	0x0000a89d	6.0487e-41
68	0x000097e6	5.4491e-41
69	0x00007505	4.1979e-41
70	0x0000918b	5.2211e-41
71	0x00008041	4.6009e-41
72	0x800049f2	-2.6527e-41
73	0x80004ff4	-2.8682e-41
74	0x80004f20	-2.8385e-41
75	0x80004cdb	-2.757e-41
76	0x80005816	-3.1599e-41
77	0x80004e4e	-2.809e-41
78	0x80004cbb	-2.7526e-41
79	0x80004675	-2.5275e-41
80	0x8000339f	-1.8518e-41
81	0xbb7bca5e	-0.003842018
82	0xbbd34e5e	-0.006448551
83	0xbc2378e6	-0.009977555
84	0xbbf056fd	-0.0073345886
85	0xbc02c1f1	-0.00798081
86	0xbc1aff8f	-0.009460344
87	0xbc1cc5c9	-0.00956864
88	0xbc0e7139	-0.008693987
89	0xbbf9e71f	-0.0076264287
90	0xbb404809	-0.0029339811
91	0xba334e65	-0.000683999
92	0x3a58c6de	0.00082693796
93	0xbace552b	-0.0015741935
94	0xb8270ddc	-3.982881e-05
95	0x3a88cd4b	0.0010437159
96	0xba858af3	-0.0010188505
97	0x39ceb757	0.0003942798
98	0x3a6fca2f	0.0009147254
99	0x00007d34	4.4914e-41
100	0x00009de8	5.6646e-41
101	0x00008825	4.884e-41
102	0x00009913	5.4913e-41
103	0x0000b75d	6.5778e-41
104	0x0000a303	5.8478e-41
105	0x00007d39	4.4921e-41
106	0x00009a20	5.529e-41
107	0x000086b3	4.8321e-41
108	0x00007a22	4.3813e-41
109	0x00009645	5.3907e-41
110	0x00008399	4.7208e-41
111	0x00008be5	5.0185e-41
112	0x0000a816	6.0298e-41
113	0x0000967c	5.3984e-41
114	0x0000744b	4.1718e-41
115	0x000090dc	5.1966e-41
116	0x00007e7d	4.5375e-41
117	0x00007932	4.3477e-41
118	0x0000947f	5.327e-41
119	0x000083e5	4.7315e-41
120	0x00008b9e	5.0085e-41
121	0x0000a83e	6.0354e-41
122	0x000095f8	5.3799e-41
123	0x000073bf	4.1522e-41
124	0x00009072	5.1817e-41
125	0x00007e15	4.523e-41
126	0x000078f2	4.3387e-41
127	0x00009525	5.3503e-41
128	0x000082fc	4.6988e-41
129	0x00008a70	4.9662e-41
130	0x0000a899	6.0481e-41
131	0x00009512	5.3476e-41
132	0x0000733d	4.134e-41
133	0x00008fe8	5.1624e-41
134	0x00007ddf	4.5154e-41
135	0x00007771	4.2848e-41
136	0x000093c1	5.3004e-41
137	0x00008323	4.7043e-41
138	0x0000892f	4.9212e-41
139	0x0000a591	5.9394e-41
140	0x000093e1	5.3049e-41
141	0x000072ad	4.1138e-41
142	0x00008ec0	5.1209e-41
143	0x00007d23	4.489e-41
144	0xb6f56b32	-7.314048e-06
145	0xb6e0a9e7	-6.6954995e-06
146	0xb70faed7	-8.564172e-06
147	0xb6c15f86	-5.7629686e-06
148	0xb6ad6bdb	-5.168358e-06
149	0xb6ee00a2	-7.0930264e-06
150	0xb6e8e5ad	-6.9408766e-06
151	0xb6dabc3a	-6.5188187e-06
152	0xb70cd4e9	-8.394222e-06
153	0x00007a8f	4.3966e-41
154	0x000096d7	5.4111e-41
155	0x00008334	4.7067e-41
156	0x00008d59	5.0706e-41
157	0x0000a88c	6.0463e-41
158	0x000096f0	5.4146e-41
159	0x00007538	4.205e-41
160	0x00009195	5.2225e-41
161	0x00007e66	4.5343e-41
162	0x00007a64	4.3905e-41
163	0x000096c4	5.4085e-41
164	0x00008550	4.7824e-41
165	0x00008c9f	5.0445e-41
166	0x0000a9de	6.0937e-41
167	0x00009821	5.4574e-41
168	0x00007430	4.168e-41
169	0x00009191	5.222e-41
170	0x00007fab	4.5799e-41
171	0x000078fd	4.3402e-41
172	0x00009529	5.3509e-41
173	0x0000832a	4.7053e-41
174	0x00008c03	5.0227e-41
175	0x0000a834	6.034e-41
176	0x0000960b	5.3825e-41
177	0x0000743e	4.17e-41
178	0x000091c5	5.2292e-41
179	0x00007ec5	4.5476e-41
180	0x3b18967e	0.002328306
181	0x3af2cd89	0.0018524389
182	0x3ab89670	0.001408292
183	0x3aed12d3	0.0018087275
184	0x3accc6db	0.0015623228
185	0x3a9a2b13	0.0011762105
186	0xb99aad02	-0.0002950207
187	0xba4a980b	-0.00077283446
188	0xba9f4192	-0.0012150279
189	0x004c1e35	6.990334e-39
190	0x006620d5	9.378999e-39
191	0x004c180a	6.988121e-39
192	0x006df501	1.009796e-38
193	0x006c2f25	9.935146e-39
194	0x002fdbbe	4.395097e-39
195	0x00860899	1.2309041e-38
196	0x00619e38	8.964801e-39
197	0x00031f47	2.86727e-40
198	0xa44bca01	-4.4189712e-17
199	0xa4417429	-4.1948595e-17
200	0xa4938c78	-6.398905e-17
201	0xa4042ae7	-2.8659277e-17
202	0xa43a88b1	-4.0448103e-17
203	0xa4b45bc0	-7.821799e-17
204	0xa3db5830	-2.3781376e-17
205	0xa4725203	-5.2544852e-17
206	0xa4ecfc0b	-1.0277566e-16
207	0xba8b02d0	-0.0010605697
208	0xba99ddee	-0.0011739114
209	0xbb2b2ae9	-0.0026118106
210	0xb9e8a461	-0.0004437296
211	0x39833cdb	0.00025031608
212	0xbacc055c	-0.0015565562
213	0x3b0512e2	0.0020305444
214	0x3b3be369	0.0028669483
215	0x3a93eb4a	0.0011285332
216	0x3a0c83a1	0.00053601904
217	0x3a147cdf	0.0005664359
218	0x3a63b83a	0.00086868147
219	0x3ad68a86	0.0016368187
220	0x3aa6b54a	0.0012718823
221	0x3a64be87	0.00087259006
222	0x3acf28b5	0.0015804978
223	0x3a8fc3e8	0.0010968419
224	0x3a28ac3c	0.00064343563
225	0x9f1c7138	-3.3127937e-20
226	0x9f08c9b0	-2.8965952e-20
227	0x9f0ee11a	-3.025587e-20
228	0x9efa52d9	-2.6504045e-20
229	0x9ee08137	-2.3770365e-20
230	0x9f048542	-2.8062316e-20
231	0x9edf94d6	-2.36726e-20
232	0x9eda9627	-2.314375e-20
233	0x9f0bfc76	-2.9643226e-20
234	0x0709468d	1.0327467e-34
235	0x06e99bfc	8.787406e-35
236	0x06c5148c	7.4133355e-35
237	0x07091d5f	1.0315366e-34
238	0x06f64c30	9.264686e-35
239	0x06e810f0	8.729359e-35
240	0x06c88950	7.54334e-35
241	0x06baff09	7.0340164e-35
242	0x06c5eb84	7.4449223e-35
243	0x00006ea8	3.9696e-41
244	0x000091bb	5.2278e-41
245	0x00007ce5	4.4804e-41
246	0x000083ae	4.7238e-41
247	0x0000a9f1	6.0963e-41
248	0x00009386	5.2921e-41
249	0x000068b5	3.7562e-41
250	0x00008e35	5.1014e-41
251	0x000079ac	4.3648e-41
252	0x8007aa19	-7.03868e-40
253	0x80083315	-7.53009e-40
254	0x800b75d7	-1.052463e-39
255	0x8005664d	-4.95876e-40

encoder_r.c1.main.0.bias f4 [64]
0	0xbc0031ac	-0.007824343
1	0x3c7ff47d	0.015622255
2	0xbc819640	-0.015818715
3	0xbc4811cb	-0.012211273
4	0x3c02183d	0.007940349
5	0x3cf59da8	0.029982403
6	0x3c9f5e70	0.019454211
7	0xbc3a4bf2	-0.011370646
8	0xbc05fe59	-0.008178317
9	0x3abadf74	0.0014257268
10	0xbb5c924e	-0.003365654
11	0xbb7852c3	-0.0037891127
12	0xbc24790f	-0.010038628
13	0x381e5736	3.7751357e-05
14	0x3be9f5bd	0.00713989
15	0x3b6d678e	0.0036225053
16	0x3bdc6122	0.0067254463
17	0x3bdcec53	0.006742039
18	0x3bddb731	0.006766223
19	0xbc27a287	-0.010231621
20	0xbc8c3061	-0.017112913
21	0x3c55a982	0.013040902
22	0xbc76ff4f	-0.015075519
23	0xbc83daf7	-0.016095622
24	0xbc6e3ad3	-0.014540392
25	0xbbbaa3db	-0.0056958026
26	0x3cb1f14a	0.0217215
27	0xbbcd3f50	-0.006263651
28	0xbaf8fe7d	-0.0018996742
29	0xba9cb864	-0.0011956808
30	0xbac41f13	-0.0014962874
31	0xbb07c491	-0.0020716528
32	0x3baf39b5	0.0053474554
33	0xbb756a6f	-0.0037447473
34	0xbbdeb822	-0.0067968527
35	0xbbd80856	-0.0065927906
36	0xbceccba2	-0.028905693
37	0x3bae0b63	0.005311416
38	0xbcf6d571	-0.030131074
39	0x3c9ffe9f	0.019530592
40	0x3bede56b	0.007260015
41	0xbc33956b	-0.010960917
42	0x3be3d09c	0.0069523584
43	0x3be802f0	0.0070804283
44	0xbc2ed4c0	-0.010670841
45	0xbb14b1d2	-0.0022688997
46	0xbb0790a3	-0.0020685575
47	0x3c05ff23	0.008178505
48	0x3c955ad1	0.018231781
49	0xbcb516d2	-0.022105608
50	0x3cacc4dd	0.021089965
51	0x3c259e6e	0.010108573
52	0x3c3afd02	0.011412861
53	0xbbb9137a	-0.0056480737
54	0xbbaf4567	-0.0053488496
55	0xbbaf3590	-0.0053469613
56	0xbc3adcc8	-0.011405177
57	0x3a5e5f3f	0.00084828207
58	0x3b8a8913	0.0042277663
59	0x3ae1a498	0.001721519
60	0xbb8de3ab	-0.0043301187
61	0xbb8d4b75	-0.0043119737
62	0xbb23f133	-0.0025015592
63	0x39e9bd2c	0.00044582167

encoder_r.c1.main.1.weight f4 [64]
0	0x00b91698	1.6997672e-38
1	0x3dd0a93a	0.101885274
2	0xb7f14c3a	-2.8764935e-05
3	0x80060ec5	-5.56311e-40
4	0x3e2019ba	0.15634814
5	0x80b1739e	-1.6296358e-38
6	0x80a54204	-1.5176539e-38
7	0x3dc31539	0.09525532
8	0x3df0df4b	0.1176134
9	0x3dde10f9	0.10843081
10	0xabd2ea30	-1.4986398e-12
11	0xb93a4ad6	-0.00017766221
12	0x3ce91619	0.02845292
13	0x37ce3e1a	2.4586032e-05
14	0x8001320d	-1.0979e-40
15	0x8001632a	-1.27409e-40
16	0x800427ca	-3.81616e-40
17	0x8003f4c3	-3.6331e-40
18	0x80044b8f	-3.94447e-40
19	0x3d878dc1	0.06618834
20	0x8083becb	-1.2098894e-38
21	0x3ddf91f7	0.109165125
22	0xb88f2436	-6.825516e-05
23	0xac4fb3f8	-2.9516372e-12
24	0x0e1af9e0	1.9102276e-30
25	0x00f0cf20	2.2114822e-38
26	0xbd338e50	-0.04383689
27	0x3d4dfc8f	0.050289687
28	0x3d46207c	0.048370823
29	0x80003603	-1.9376e-41
30	0x800028bf	-1.4617e-41
31	0x80002a9f	-1.529e-41
32	0x3db91ea0	0.090390444
33	0x87625142	-1.702623e-34
34	0x3ddf4f7e	0.10903834
35	0x3bea08c4	0.007142158
36	0x80080f05	-7.40072e-40
37	0x3d35b348	0.04436043
38	0x80080782	-7.37377e-40
39	0x3dcfc286	0.10144524
40	0x800430d8	-3.84864e-40
41	0x3dc2bf1c	0.095091075
42	0x800403cd	-3.68705e-40
43	0x800418e8	-3.76277e-40
44	0x394e3780	0.00019666366
45	0x9d342c0b	-2.3845571e-21
46	0x800a098f	-9.21784e-40
47	0x3daa2d70	0.08309448
48	0x8001881c	-1.40662e-40
49	0x3da90ad6	0.0825402
50	0x00011d0e	1.02258e-40
51	0xb7ac8a2a	-2.0568335e-05
52	0x3d469982	0.04848624
53	0x00010355	9.3031e-41
54	0x0000f419	8.7566e-41
55	0xbc3badc2	-0.011455001
56	0x3e0707bd	0.13186546
57	0x3d1824c0	0.037144423
58	0x3e0abfc7	0.1354972
59	0x80052444	-4.72187e-40
60	0xb900a3d3	-0.0001226806
61	0x810147a7	-2.3744966e-38
62	0x3dcf7ac3	0.10130837
63	0xb96880b9	-0.00022173197

encoder_r.c1.main.1.bias f4 [64]
0	0x801b16f8	-2.487798e-39
1	0x3b44db86	0.0030038073
2	0xb7251042	-9.838552e-06
3	0x801006c4	-1.471795e-39
4	0x3ceb089a	0.028690625
5	0x8019b16c	-2.359534e-39
6	0x0001bf0d	1.60372e-40
7	0xbd60d52b	-0.054890793
8	0x3b141fa3	0.0022601865
9	0xbc301262	-0.01074657
10	0xab3b941b	-6.6641283e-13
11	0xb79cc76d	-1.8689514e-05
12	0xbc94bab1	-0.018155428
13	0x34b74428	3.4135996e-07
14	0x800e09f4	-1.289267e-39
15	0x800f14df	-1.38502e-39
16	0x800bc0ab	-1.079307e-39
17	0x800b98aa	-1.064956e-39
18	0x800ba8e7	-1.070781e-39
19	0xbd74a265	-0.059725184
20	0x805b5d5b	-8.39052e-39
21	0x3c31afc9	0.010845133
22	0x36d0bdc0	6.220973e-06
23	0xab033813	-4.661837e-13
24	0x8caf3408	-2.6994334e-31
25	0x808d022d	-1.2949585e-38
26	0xbc0f65d3	-0.008752304
27	0x3ca28cd6	0.019842546
28	0x3c17a2e7	0.009255148
29	0x800fc6c2	-1.448833e-39
30	0x800f9a19	-1.432812e-39
31	0x800fb8c7	-1.443818e-39
32	0xbd19e3c6	-0.037570737
33	0x86ce884e	-7.768887e-35
34	0xbb5adbf7	-0.003339527
35	0x3ad88b1b	0.0016520949
36	0x800fbc5c	-1.445103e-39
37	0x3c1fd3aa	0.0097550545
38	0x800fa09a	-1.435145e-39
39	0xbb90c785	-0.004418316
40	0x800d81c6	-1.240415e-39
41	0xbd082273	-0.03323598
42	0x800da9c4	-1.254762e-39
43	0x800d9445	-1.24705e-39
44	0x3580f72b	9.608679e-07
45	0x9cf1587e	-1.5970917e-21
46	0x8012b64e	-1.718438e-39
47	0xbc9a6737	-0.018848045
48	0x800ec451	-1.356122e-39
49	0xbd175673	-0.03694768
50	0x80134f06	-1.773223e-39
51	0x38d854e3	0.00010315494
52	0xbb130867	-0.0022435428
53	0x800e5634	-1.316621e-39
54	0x800e5aab	-1.318222e-39
55	0xbb91deb2	-0.004451596
56	0xbc867450	-0.016412884
57	0x3c81e2d5	0.015855232
58	0x3c2aae10	0.010417476
59	0x800d2d08	-1.210016e-39
60	0x380f1832	3.411639e-05
61	0x809b8db2	-1.4285333e-38
62	0x3b92a5ac	0.004475316
63	0x37ddef69	2.6456737e-05

encoder_r.c2.main.0.weight f4 [64, 64, 3, 3]
0	0x00002a25	1.5119e-41
1	0x00001b41	9.777e-42
2	0x000012ca	6.74e-42
3	0x000017f2	8.59e-42
4	0x000003ce	1.365e-42
5	0x80000a88	-3.778e-42
6	0x00000c5b	4.432e-42
7	0x80000d33	-4.735e-42
8	0x80001a40	-9.417e-42
9	0x3825d055	3.953309e-05
10	0x37e715d0	2.7547503e-05
11	0x37351b3a	1.079478e-05
12	0x371f2870	9.486554e-06
13	0x381677e2	3.5874436e-05
14	0x378e55ca	1.6967668e-05
15	0x36f33f2b	7.249318e-06
16	0x374e60a1	1.2301055e-05
17	0xb605291b	-1.984247e-06
18	0x30fbff18	1.8335156e-09
19	0x30f93074	1.8130906e-09
20	0x31063c63	1.9533892e-09
21	0x31242f22	2.3891933e-09
22	0x31176327	2.2029754e-09
23	0x312585de	2.4086755e-09
24	0x31299c35	2.468153e-09
25	0x310bc5b2	2.033954e-09
26	0x310e22b9	2.0683457e-09
27	0x8000089a	-3.086e-42
28	0x800000ea	-3.28e-43
29	0x80000845	-2.967e-42
30	0x80001463	-7.313e-42
31	0x800008d4	-3.167e-42
32	0x80000018	-3.4e-44
33	0x8000018c	-5.55e-43
34	0x00000069	1.47e-43
35	0x00000f11	5.405e-42
36	0xb7842c0d	-1.5756139e-05
37	0xb7559f41	-1.27328685e-05
38	0xb701a56c	-7.7275145e-06
39	0xb7327448	-1.0636701e-05
40	0xb7db8dce	-2.6172867e-05
41	0xb778e5f2	-1.483549e-05
42	0xb42d0b4c	-1.611599e-07
43	0xb78cc85e	-1.6782604e-05
44	0xb6cfdaf3	-6.19457e-06
45	0x000005c5	2.07e-42
46	0x80000a40	-3.677e-42
47	0x80000e6f	-5.178e-42
48	0x00000727	2.566e-42
49	0x800002c8	-9.98e-43
50	0x800000a3	-2.28e-43
51	0x00000309	1.089e-42
52	0x800012c1	-6.728e-42
53	0x8000087b	-3.042e-42
54	0x8000058c	-1.99e-42
55	0x80000d95	-4.872e-42
56	0x800008bf	-3.138e-42
57	0x8000042f	-1.501e-42
58	0x000000af	2.45e-43
59	0x000003f6	1.421e-42
60	0x000003a1	1.302e-42
61	0x000009be	3.495e-42
62	0x00000b96	4.156e-42
63	0xb6541d52	-3.1607528e-06
64	0x36e182f5	6.720768e-06
65	0x36db27d5	6.5313457e-06
66	0x3481af1b	2.4155528e-07
67	0x36a60d05	4.948701e-06
68	0xb568af53	-8.6681865e-07
69	0xb71d34c7	-9.370217e-06
70	0xb6edb681	-7.0843967e-06
71	0xb78dd6c1	-1.6908512e-05
72	0x3749475b	1.1997147e-05
73	0xb6c4320f	-5.847083e-06
74	0xb534022b	-6.705838e-07
75	0x37805619	1.5298881e-05
76	0x373ec1f8	1.1370044e-05
77	0x3627d364	2.5007985e-06
78	0x37858856	1.5918322e-05
79	0x37f26a3d	2.889812e-05
80	0x38147edd	3.54041e-05
81	0xb724f06d	-9.83114e-06
82	0x36eb4727	7.011829e-06
83	0x36599833	3.2424111e-06
84	0xb6a6b83d	-4.9686337e-06
85	0x36b2de5c	5.3306994e-06
86	0x36c9a0b7	6.0089765e-06
87	0x36378eaf	2.7352178e-06
88	0x37042f29	7.878793e-06
89	0x373ac806	1.11330355e-05
90	0xa26c0257	-3.1985203e-18
91	0x24646437	4.9524504e-17
92	0x25014091	1.1210842e-16
93	0x2461b11b	4.8939112e-17
94	0x2497c755	6.582349e-17
95	0x24e2d710	9.8376206e-17
96	0x240204c0	2.819328e-17
97	0x23cd805e	2.228051e-17
98	0x242fd118	3.8124185e-17
99	0x31f27e8d	7.057514e-09
100	0x325cc8eb	1.2851369e-08
101	0x32ac56a4	2.0062835e-08
102	0x325e9631	1.295625e-08
103	0x32778de9	1.4409559e-08
104	0x329e4b9d	1.8428006e-08
105	0x320570aa	7.767236e-09
106	0x31e5cfc1	6.688396e-09
107	0x322bdb5c	1.0003387e-08
108	0xb55a715d	-8.1376294e-07
109	0xb509d069	-5.1339754e-07
110	0xb50c760c	-5.2325845e-07
111	0xb4ccb1dd	-3.8127374e-07
112	0xb3076a46	-3.1528792e-08
113	0xb3355219	-4.2217014e-08
114	0xb3c33aa7	-9.091064e-08
115	0x33c0b47a	8.973525e-08
116	0xb406b457	-1.254533e-07
117	0xb043391a	-7.1021733e-10
118	0xae0a396a	-3.142856e-11
119	0x2fe8615a	4.2269727e-10
120	0xb06a7c32	-8.5305196e-10
121	0xaf845200	-2.4068925e-10
122	0x2fb4b1a3	3.2868028e-10
123	0xaf43d353	-1.7810224e-10
124	0x30071e3a	4.915567e-10
125	0x30385fc0	6.707488e-10
126	0x800017bc	-8.514e-42
127	0x800018a1	-8.835e-42
128	0x80001728	-8.307e-42
129	0x80001a49	-9.43e-42
130	0x80001998	-9.181e-42
131	0x8000183d	-8.695e-42
132	0x800019fb	-9.32e-42
133	0x80001962	-9.106e-42
134	0x80001705	-8.258e-42
135	0x800022a4	-1.2427e-41
136	0x8000220d	-1.2215e-41
137	0x800022d6	-1.2497e-41
138	0x80002069	-1.1627e-41
139	0x80002036	-1.1555e-41
140	0x800021bc	-1.2102e-41
141	0x800020bd	-1.1744e-41
142	0x800020e0	-1.1793e-41
143	0x80002202	-1.22e-41
144	0x000003b5	1.33e-42
145	0x00000573	1.955e-42
146	0x000001e4	6.78e-43
147	0x000005eb	2.123e-42
148	0x000005b8	2.052e-42
149	0x00000616	2.183e-42
150	0x000006b6	2.407e-42
151	0x000005dd	2.103e-42
152	0x00000473	1.596e-42
153	0x800006ba	-2.413e-42
154	0x8000055f	-1.927e-42
155	0x80000838	-2.948e-42
156	0x80000357	-1.198e-42
157	0x8000022d	-7.8e-43
158	0x800004e9	-1.761e-42
159	0x80000445	-1.532e-42
160	0x80000361	-1.212e-42
161	0x80000612	-2.178e-42
162	0x000016e7	8.216e-42
163	0x000015ea	7.861e-42
164	0x00000edb	5.329e-42
165	0x000016cf	8.182e-42
166	0x0000181f	8.653e-42
167	0x00001471	7.333e-42
168	0x0000141d	7.215e-42
169	0x00001573	7.695e-42
170	0x00000e08	5.033e-42
171	0xb6708b08	-3.5843714e-06
172	0xb6ad2c09	-5.160928e-06
173	0xb6c504ec	-5.8716305e-06
174	0xb5fc0e17	-1.8779564e-06
175	0xb6497960	-3.0021984e-06
176	0xb63b0c2d	-2.7872259e-06
177	0xb51d20f9	-5.853504e-07
178	0x32860351	1.5601161e-08
179	0x354263b4	7.241572e-07
180	0x00004c17	2.7296e-41
181	0x000067f1	3.7287e-41
182	0x00006120	3.4842e-41
183	0x00004ca6	2.7496e-41
184	0x00004e39	2.8061e-41
185	0x0000446d	2.4547e-41
186	0x000045a8	2.4988e-41
187	0x0000451e	2.4795e-41
188	0x00003e78	2.241e-41
189	0x37b3f47d	2.1452312e-05
190	0xb6bd2e43	-5.6380245e-06
191	0xb6c1bc10	-5.7737416e-06
192	0x36e03428	6.681792e-06
193	0x36836379	3.9156844e-06
194	0xb715e4d4	-8.93437e-06
195	0x371196c4	8.677776e-06
196	0x3784db6b	1.58378e-05
197	0x37b110b4	2.1107822e-05
198	0xb1636d01	-3.309481e-09
199	0x321319ad	8.562364e-09
200	0x323af43d	1.0882158e-08
201	0xb1bb9003	-5.4587885e-09
202	0x316dd64d	3.4609855e-09
203	0x31a04f2c	4.6656137e-09
204	0xb2104926	-8.398535e-09
205	0xb1935496	-4.2878794e-09
206	0xb11e9a8b	-2.3079874e-09
207	0xa3298933	-9.1905614e-18
208	0x259418ef	2.5690803e-16
209	0x25a1e176	2.8081826e-16
210	0xa394c138	-1.6128023e-17
211	0x254caac0	1.7752032e-16
212	0x25116ea9	1.2614238e-16
213	0xa547c1ef	-1.7326206e-16
214	0xa51bdb20	-1.351835e-16
215	0xa4d927ad	-9.417596e-17
216	0x074d229e	1.5432659e-34
217	0x06a26749	6.108939e-35
218	0x84ff6445	-6.0042295e-36
219	0x072d4bee	1.3037387e-34
220	0x06b6e02f	6.87902e-35
221	0x86b08f81	-6.64147e-35
222	0x8692b410	-5.5183674e-35
223	0x873d3fc8	-1.4237523e-34
224	0x876b2573	-1.769044e-34
225	0x00003ced	2.1856e-41
226	0x000033fb	1.8647e-41
227	0x00001d8f	1.0604e-41
228	0x00003bf7	2.1511e-41
229	0x0000357d	1.9188e-41
230	0x000012eb	6.786e-42
231	0x00002a4a	1.517e-41
232	0x00001bfb	1.0038e-41
233	0x0000047b	1.607e-42
234	0xb69b34f5	-4.625525e-06
235	0xb545b97f	-7.365815e-07
236	0x36a49749	4.905193e-06
237	0x35bb2d6d	1.3945806e-06
238	0xb3bdd66f	-8.8400036e-08
239	0x36ea22c0	6.977789e-06
240	0xb56ca012	-8.8149784e-07
241	0xb6c1b587	-5.772981e-06
242	0x35d83b99	1.6110599e-06
243	0xb5048362	-4.936502e-07
244	0x340fc57d	1.3389759e-07
245	0x3527ba9b	6.2483895e-07
246	0xb6726a15	-3.6122558e-06
247	0xb5826cdd	-9.717438e-07
248	0xb5671d37	-8.609672e-07
249	0xb6e2802d	-6.7502465e-06
250	0xb67f705f	-3.806337e-06
251	0xb628d86d	-2.5159927e-06
252	0xb68583cf	-3.9790534e-06
253	0x35427127	7.243529e-07
254	0x36bd2667	5.6371096e-06
255	0x378dfbd0	1.692577e-05
